satelliteremoval.pth (torch, 482878 bytes, 22 tensors)

encoder1.0.weight f4 [16, 3, 3, 3]
000000 0e 26 5f 3e 92 de 30 be 9f d9 5c 3d 6b 16 ce bd
       0.2179186 -0.17272404 0.053918477 -0.1006287
000010 eb 70 3c be 45 33 9b bc d0 30 15 bc 21 41 23 be
       -0.1840245 -0.018945346 -0.009105876 -0.15942813
000020 bd 6b df 3d 76 f7 99 bd cf 9a 6b 3d cf 36 4a 3e
       0.10909221 -0.075179026 0.057520684 0.1974747
000030 8b 48 0d be 76 a4 ef bd b6 92 a7 3d 6d d4 df 3d
       -0.13797204 -0.1170129 0.0818228 0.10929189
000040 05 0f f8 3d 9b 80 c6 bd dd c8 56 3e be fb 40 3e
       0.1211224 -0.09692498 0.20975061 0.18846032
000050 94 5a 47 bd c4 52 30 3e a9 83 1e 3e b3 0a 38 3e
       -0.048670366 0.17219073 0.15479912 0.17972831
000060 21 83 c7 bc d1 a2 fb 3c 0d 23 0d 3e b0 78 16 3e
       -0.02435452 0.030717285 0.13782902 0.14694476
000070 7d 55 0b 3e 18 73 00 3e 0c ac a2 3d 1e ba aa 3d
       0.1360683 0.12543905 0.079429716 0.0833628
000080 7c 87 26 3c bd 3e ad bb 3e 72 97 3d 56 28 e4 3c
       0.010164138 -0.00528702 0.07394837 0.027851265
000090 ec 5a 75 be 99 7b cc 3d 4a 76 f8 bd 71 85 c5 3d
       -0.23960465 0.09984512 -0.12131937 0.096445926
0000a0 cf 9d 0e 3e e1 81 d0 bb 31 20 c2 3d 54 af 3e 3e
       0.13927387 -0.006363139 0.09478796 0.1862157
0000b0 2c 59 32 3e 12 4f 28 3e a4 99 10 be 0b 06 e6 3c
       0.17416829 0.16436413 -0.14121109 0.028079053
0000c0 0b 85 08 3e ce 25 60 3d a9 7d ac ba 09 30 e2 3d
       0.13332002 0.054723553 -0.0013160008 0.11044318
0000d0 64 45 b4 3d 97 00 3f 3d e0 d9 22 be 7a 16 30 be
       0.08802298 0.046631422 -0.15903425 -0.17196074
0000e0 4d 30 18 3e 7f 55 27 bd 53 a0 0c bd 46 06 4f be
       0.14862175 -0.04085302 -0.034332585 -0.20217237
0000f0 48 cb a1 3b 6c 65 54 3d 6e 83 f7 bd bd 2d d4 3d
       0.004937563 0.051854536 -0.12085615 0.103602864
000100 1a 70 24 be 9f 13 12 be 08 8f 65 3e c8 1b 72 3e
       -0.16058388 -0.14265297 0.22417843 0.2364341
000110 ba e5 4d 3e 39 39 d7 bc 1b 20 fe 3d 1a a9 d4 3d
       0.20107165 -0.026272403 0.124084674 0.10383816
000120 fc e2 57 3e 16 ca 99 3d de c5 24 be 65 3a da bc
       0.21082681 0.07509248 -0.16091105 -0.026639173
000130 ec 57 b1 bd 47 70 2e 3e 25 48 5a bd 15 cb 22 be
       -0.08659348 0.17035018 -0.05329146 -0.15897782
000140 73 51 89 bd e5 14 d8 3d a3 ff b0 3d 16 12 c6 bd
       -0.06704988 0.1055086 0.08642509 -0.09671418
000150 a1 cd f7 bd b1 c0 5a be 97 8b 13 3e e7 35 d1 3d
       -0.120997675 -0.21362568 0.14408718 0.10215359
000160 b1 fe 26 be ce a6 9d bd ea 73 dc 3d e8 be 38 be
       -0.16308095 -0.07697831 0.10764296 -0.18041575
000170 1a 22 d9 bd b0 b8 00 bd f0 f7 b4 3d 0e 5c 5c be
       -0.106022075 -0.03142613 0.08836353 -0.21519491
000180 ba 1b 00 3d 05 72 cf bd e2 8c 2c 3d 5b 98 82 3e
       0.031276442 -0.101291694 0.042126544 0.25506863
000190 1e 89 02 3d 9b 29 86 bc df af 1a 3e 53 fd 4b 3e
       0.031869046 -0.01637726 0.15106152 0.19920854
0001a0 ca 42 0d bd b9 1b 07 3e f1 a1 69 3d 27 3c 05 3d
       -0.034487523 0.13194169 0.057039205 0.03252807
0001b0 67 6e c5 bd 98 ea ec 3d aa ba 15 3e 1c 7a 0c be
       -0.09640198 0.11568183 0.14621988 -0.13718456
0001c0 d9 a4 9d 3c 56 11 8d 3e de 6e 85 3c 4f 0e 4a be
       0.019243645 0.2755229 0.016288217 -0.19732021
0001d0 3a 0f 84 bd aa ad ca 3c ce 25 0c 3e 73 e2 44 be
       -0.06448217 0.024741013 0.13686296 -0.19227009
0001e0 9d 04 0b 3e 8e e2 79 be 4b a6 97 3d 15 1a 02 3d
       0.13575979 -0.2440283 0.07404765 0.031763155
0001f0 3a c8 ef 3b e4 4b d8 3d 5e 6e 11 3c b0 00 80 3c
       0.00731757 0.1056135 0.008876411 0.015625328
000200 a0 81 43 bd a8 b5 f2 bc 15 37 4d be a7 ec f9 3c
       -0.047731042 -0.029627636 -0.20040543 0.030508352
000210 89 2a 5a 3d ad c3 d8 3a a0 6d 34 3d b5 04 b7 3d
       0.05326322 0.0016537808 0.04404986 0.08936445
000220 8d 1e 2d be db a1 af bd 83 67 48 be 35 02 09 3e
       -0.16906185 -0.08575793 -0.19570737 0.13379748
000230 a1 1f 06 bd 85 a1 d4 bc a6 c2 b9 bc d4 d1 d5 3c
       -0.032745007 -0.025955925 -0.022675823 0.02610103
000240 dc 15 22 3e 52 10 16 3d 46 dc c6 bd 17 3c 20 3e
       0.15828651 0.036636658 -0.097099826 0.15647922
000250 ec cd fe bc a2 aa 26 3e 0a d6 02 3d 73 cd 69 3e
       -0.03110405 0.16276029 0.031942405 0.22832279
000260 06 a0 1e 3e e2 5c 2b be 4a 9d ac bd 57 21 c9 3d
       0.15490732 -0.1673465 -0.08428438 0.09820812
000270 fe 17 30 be 9e 34 38 be ce 15 08 bb d4 6c 95 3d
       -0.17196652 -0.17988822 -0.002076495 0.07296148
000280 8a f8 0d 3e e6 40 44 bd e6 ae 68 bd 70 94 24 3e
       0.13864341 -0.047913454 -0.05680742 0.1607225
000290 a1 78 4e 3e 19 28 84 3d e2 89 14 3e 50 19 be 3d
       0.20163204 0.064529605 0.14505723 0.09282172
0002a0 21 08 63 3d b4 72 9a bd bf 53 9c 3d 12 46 fc bc
       0.055427674 -0.07541409 0.07633161 -0.03079513
0002b0 5f 16 2e 3e 19 75 81 3b da 7c aa bc 17 38 29 be
       0.17000721 0.0039507267 -0.020811487 -0.16525303
0002c0 a8 69 5c 3e 79 d7 02 be ee d3 2c be 26 0d df bd
       0.2152468 -0.12777509 -0.1687772 -0.1089118
0002d0 33 21 5c 3c 75 fa ad 3d 85 4b 8c 3c be 98 16 bd
       0.01343565 0.084950365 0.017125854 -0.03676676
0002e0 7f b1 1d 3e ac b1 8e 3d 34 33 59 bd d8 28 cb bd
       0.1539974 0.06967482 -0.053027347 -0.099199
0002f0 41 1d 5b 3e 02 ec 1b 3e 15 f2 0f 3e a6 a8 70 be
       0.21397878 0.15226749 0.1405719 -0.23501834
000300 8b f5 11 3e 99 84 4c 3e ed ad 0f bd e1 34 2a 3e
       0.14253823 0.19972457 -0.035077978 0.16621734
000310 fc e9 26 3e 86 3c 49 3e 95 7c 02 bc fa 5d c0 3d
       0.16300195 0.19651994 -0.007964273 0.093929246
000320 c5 76 8f bd 1e b4 53 be 75 1f 03 be 98 2e 13 be
       -0.07005075 -0.20674178 -0.12804969 -0.14373243
000330 b0 08 f5 3d 67 ae 0f 3d a3 3e d9 bd b9 ee 6d bc
       0.11964548 0.035078432 -0.1060765 -0.014522248
000340 4e 58 de 3d 67 c8 b2 3d 67 ee 99 3d e2 fa 24 3d
       0.108566865 0.0872963 0.07516175 0.040278323
000350 06 e9 f6 bd 14 54 b9 bd 20 26 27 3d 58 e7 59 be
       -0.120561644 -0.0904924 0.040807843 -0.21279657
000360 ae c9 21 3e e6 06 81 3e c6 7e cb bd 11 9c 05 3c
       0.15799591 0.25200576 -0.099362895 0.008154885
000370 b8 d7 83 bd df 1d 6f be 90 bb 8a bb 78 f1 a2 bd
       -0.064376295 -0.23351239 -0.004233785 -0.07956213
000380 29 66 3d bd 08 f5 a7 3d ca b7 1f be 8c 2c 3d bd
       -0.046240006 0.08201033 -0.15597454 -0.04618506
000390 8f a4 38 3e fb 94 62 3d 93 b5 a6 3c b6 0c b3 3d
       0.18031524 0.05531786 0.020350253 0.08742659
0003a0 7f f3 d3 bd e5 62 a9 bb 18 17 80 3d 7a 6a 3f be
       -0.103491776 -0.00516926 0.06254405 -0.18692961
0003b0 19 b7 11 3e 23 ea 44 bd 47 61 2c 3e 3d dd 2f 3e
       0.14230002 -0.048074853 0.16833983 0.1717424
0003c0 89 92 0b be 73 e9 a7 bd 11 01 1c bd e4 fc cd bd
       -0.13630117 -0.08198824 -0.038086955 -0.10058001
0003d0 51 97 44 be a8 3c 3a 3d 72 89 4b 3d 55 2f 65 be
       -0.19198348 0.045468003 0.049691625 -0.22381337
0003e0 0e f7 c7 3b f8 2f 8c bc f2 78 a4 bd f5 3d 4a 3c
       0.0061024493 -0.017112717 -0.08030881 0.012343873
0003f0 0a 16 61 3e 43 71 bf 3d 8a ab d0 bc 0e 2d 9e bd
       0.21981063 0.09347775 -0.025472421 -0.07723437

encoder1.0.bias f4 [16]
000000 a3 bc c1 bd 8d 20 69 be bc 11 2c 3e d4 0b 97 3d
       -0.09459808 -0.22766323 0.1680364 0.07375303
000010 cd 43 01 3e 3f f9 7b 3d c5 a5 ad bd ee 7e 5a 3c
       0.1262352 0.061516996 -0.08478884 0.013335926
000020 b3 9f de 3d a5 d8 92 3b 43 e9 21 3e f8 d3 28 be
       0.10870304 0.0044813924 0.15811639 -0.1648711
000030 74 cb 94 be 53 e9 83 3e 69 d3 ed bd 71 20 ea b9
       -0.29061472 0.2576395 -0.11612589 -0.0004465613

encoder1.2.weight f4 [16, 16, 3, 3]
000000 bc ce 08 3d 09 b2 74 bc b0 23 b5 3d 70 7a 8a bc
       0.033400282 -0.014935025 0.088446975 -0.016904086
000010 b4 ce 09 3e da ce 1a bd 85 1b b5 3d ac 80 58 3d
       0.13457757 -0.037794925 0.088431396 0.052857086
000020 65 12 11 3c 34 a6 90 bd e6 b7 95 bd 88 60 89 3d
       0.008854483 -0.07062951 -0.073104665 0.06707865
000030 d9 27 0c bd a9 ec 62 3d 29 6c 51 bd 08 d5 39 bd
       -0.03421769 0.055401478 -0.05112854 -0.045369178
000040 08 f5 b0 bd a0 d6 d0 bd 67 a5 3e 3d 92 af 69 bd
       -0.08640486 -0.101971865 0.04654446 -0.057052203
000050 24 82 da 3d 5c f1 6b 3e 79 40 9d 3c b6 86 85 3d
       0.106693536 0.2304129 0.019195782 0.06519835
000060 ad 4e 17 3d 98 dc 63 3d 58 e4 cf 3d 66 64 ad bd
       0.036940265 0.055630296 0.10150975 -0.08466415
000070 75 d6 03 3d 2b f8 78 bd 15 c6 d5 3d d2 34 e0 3d
       0.032186944 -0.060783546 0.10438172 0.10947575
000080 a3 3a d9 bc 40 62 e0 bc 2f 1f 43 3d 06 f7 84 bd
       -0.026517218 -0.0273906 0.04763716 -0.064924285
000090 15 1b 8c 3d 69 92 10 3e b4 93 35 bd 45 a2 16 be
       0.06841103 0.14118351 -0.044330314 -0.14710338
0000a0 1a 83 7a 3d 24 53 93 3d 32 94 a9 bd 90 ff fb bd
       0.061160184 0.07193592 -0.08280219 -0.12304604
0000b0 19 38 fa 3d 1f ae 1e bd 78 3d 32 3c b6 96 41 3d
       0.12217731 -0.038740274 0.010878913 0.04726287
0000c0 34 57 ea bd 64 82 d2 3c ca fb 90 3c ac 61 41 3d
       -0.11442414 0.02569694 0.017698187 0.047212288
0000d0 6b 8f 9b bd 8e 30 4a 3d e6 be 16 3d 04 ad b3 bb
       -0.07595714 0.04936271 0.03680315 -0.0054832716
0000e0 d4 0b e9 3d 1d d4 4a 3d b8 84 e0 bd d5 e3 4e 3b
       0.11379209 0.049518693 -0.10962814 0.0031568904
0000f0 f9 be b6 bd ee d4 0c 3d 00 8c 12 bd f3 6b 9c 3b
       -0.08923144 0.034382753 -0.035778046 0.0047736107
000100 0c 1d 0c bd 7c ec 24 bc 13 3c 06 bd 76 e2 2b bd
       -0.03420739 -0.010066148 -0.032772135 -0.041964017
000110 c1 15 2c bd 93 90 9d bc be d7 58 3d 4f 7e c6 bd
       -0.042012934 -0.019233977 0.052940123 -0.0969206
000120 47 6c 6c 3c c0 17 bd bd cc 61 59 3d 38 ab 0c 3e
       0.014430112 -0.092330456 0.053071782 0.1373719
000130 5b 9f b5 3d 97 45 9b 3d cd 9d a4 3d 76 13 30 be
       0.08868285 0.075816326 0.080379106 -0.17194924
000140 7e a8 ef bd 15 c2 59 bd 19 b9 8e 3d 7c 16 c9 3d
       -0.11702059 -0.053163607 0.06968898 0.09818742
000150 5c 56 11 3e 47 2e ee 3d 67 2f 6a 3d 61 c4 06 3d
       0.141931 0.116299205 0.057174113 0.032902125
000160 ce 07 1a 3e f0 de 2a bb 03 7f f3 3c 68 52 83 3d
       0.1504204 -0.0026072823 0.02972365 0.06412202
000170 3e ea 86 bd 6b 30 10 3e 00 4d 94 bc 41 ae 40 3d
       -0.06587647 0.1408097 -0.018103123 0.04704118
000180 dd 42 b3 bc 45 94 c8 3d 73 01 66 3d eb d4 1a bd
       -0.021882469 0.09793905 0.056153726 -0.03780071
000190 13 c7 e2 3d 0e fc c8 ba e2 3e 00 3e 1b ca f1 3d
       0.11073127 -0.0015333907 0.12523988 0.11806127
0001a0 a6 17 2e 3e f1 a8 60 3d 31 7d 49 3d 3d a5 ca 3c
       0.17001209 0.054848615 0.049191657 0.024736995
0001b0 5a db 34 bd 53 72 4f 3d ce a5 cf 3a 0a df e1 3d
       -0.044154502 0.050646137 0.001584226 0.110288695
0001c0 a1 b4 f5 3d 36 3f ef 3c 94 26 27 3e fe 2d 18 3e
       0.11997343 0.029204946 0.1632331 0.14861295
0001d0 c3 9c d8 3c 6d 31 6c bd 05 c2 a7 bd af d8 da bd
       0.026441937 -0.057664324 -0.08191303 -0.1068586
0001e0 97 40 a6 3c 69 82 b4 3c b9 3e 95 bd ac 0b ce bc
       0.02029447 0.02203484 -0.07287354 -0.02515205
0001f0 93 bb bc 3c 70 c0 70 bd 37 5a f7 3e 7d 29 d6 3e
       0.023038661 -0.058777273 0.48311016 0.41828528
000200 2e b9 b0 3e bd a9 57 bd 89 41 c5 3d 93 46 13 3e
       0.3451628 -0.05265211 0.096316405 0.1438239
000210 73 97 18 bd a9 d7 c9 3d 08 fa 0e bd 01 35 60 3d
       -0.03725381 0.09855587 -0.034906417 0.05473805
000220 e0 a0 4e bd 50 55 c2 bc 00 6b 97 bd 40 d2 cb bc
       -0.05044639 -0.02372232 -0.073934555 -0.024880528
000230 74 4d 36 3b 99 35 a2 3d 12 1a e8 3d 19 6c 4b bb
       0.0027817162 0.07920379 0.113330975 -0.0031039773
000240 6d b0 e3 bd 06 ef 2c 3d e5 81 b1 3d ab 86 1a 3c
       -0.11117635 0.042220138 0.086673535 0.009431521
000250 d4 37 8c bd 8b 70 0f be 33 fa f8 bd 31 f1 0a be
       -0.06846586 -0.14007775 -0.12157097 -0.1356857
000260 9c ef ed bd 55 63 6d 3d 44 ae 4e bd 5f 75 d0 3c
       -0.116179675 0.05795606 -0.05045916 0.025446592
000270 f6 2f 07 3d f2 51 88 bd 8b a4 a9 bd 71 a6 b9 3d
       0.033004723 -0.06656255 -0.08283337 0.09064949
000280 16 de 98 3d 1e 73 da bc 5f 01 d9 3d 66 4e 42 3d
       0.074642345 -0.02666622 0.10595965 0.047438048
000290 23 27 f4 bb fc f5 e6 3c b7 4e 81 3d bd 6f 11 3d
       -0.0074509545 0.028193466 0.06313842 0.035506953
0002a0 30 51 3b bb 09 25 b9 3b a2 39 b9 3d 79 6b 48 bd
       -0.0028582327 0.005650167 0.09044196 -0.04893062
0002b0 a5 59 b1 3d 62 ea 19 3d dd 49 03 3c 7b cf bd bc
       0.086596765 0.03757704 0.008013216 -0.023170223
0002c0 11 3f bf bc bd 4f 64 3d 71 ad 46 bd 35 ff 31 3d
       -0.023345502 0.055740107 -0.04850525 0.043456275
0002d0 cb 95 48 3d 92 62 35 3d e6 39 98 3d ee 3b 22 be
       0.04897098 0.044283457 0.07432918 -0.15843174
0002e0 06 73 d0 bd 5a f7 f8 3d 96 e9 c7 3d 11 f8 fa bc
       -0.10178189 0.121565536 0.0976135 -0.030635865
0002f0 dd a3 aa bc ae 02 c4 3d 40 10 c8 3d 9b d0 36 3e
       -0.02083009 0.095708236 0.097687244 0.17853014
000300 e2 11 73 3d 25 3d ae 3c b6 ca 19 3e 64 79 83 bc
       0.059343226 0.02126939 0.15018734 -0.016049094
000310 2e e6 f4 3d 59 8c 88 bc 07 30 db bd 92 d2 85 3c
       0.11957966 -0.016668485 -0.1070252 0.01633576
000320 f2 c9 6b bc 44 fa 12 bd a4 99 1d be 5a d2 1d 3d
       -0.014391409 -0.035883203 -0.1539064 0.038530685
000330 32 81 8f bd 8d 94 d3 bc 8b 6a c6 b9 04 c1 e5 ba
       -0.07007064 -0.02582767 -0.00037844884 -0.0017528837
000340 85 ee 8e 3d 81 3d b1 3a 1b 61 b4 3b f5 d4 90 bd
       0.06979088 0.0013522358 0.00550474 -0.07071868
000350 8e 6c ac bd bf 29 f9 3d 33 ba cd 3d 59 77 2a bb
       -0.08419143 0.121661656 0.1004528 -0.0026011078
000360 79 cb 12 bc 58 a5 82 3c 77 db e6 3d 77 0f 2d bd
       -0.0089596445 0.015947983 0.11272328 -0.042251077
000370 41 a0 90 bd 30 68 62 bd 95 d6 95 bd 9c d7 51 bc
       -0.07061816 -0.055275142 -0.07316319 -0.012807753
000380 43 0c 7d 3d cb 5b 8b bc 43 1c 4c bc f0 64 61 bd
       0.06177927 -0.017011544 -0.01245791 -0.055027902
000390 2d f5 06 bd 91 f4 8a 3d bf 50 63 bd 25 c0 74 bd
       -0.03294866 0.067849286 -0.055496927 -0.059753556
0003a0 57 1f ee 3d 4b f4 3d 3d 19 87 04 3e 6f 13 ce bc
       0.11627071 0.046375554 0.1294216 -0.025155751
0003b0 26 38 24 3d e5 34 34 3e 51 7d d5 bb 72 3d 10 bd
       0.04009261 0.17598303 -0.006515183 -0.03521485
0003c0 03 02 23 bd 5a 7f 11 3c d0 41 26 3d 66 a7 85 bd
       -0.03979684 0.008880461 0.040590107 -0.06526069
0003d0 4d 8b 7c 3d fb 38 2a 3e 72 27 a8 3d b2 aa 4b 3e
       0.061656285 0.16623299 0.082106486 0.19889334
0003e0 37 32 8c 3e 9b 97 59 3e 56 89 71 3e a0 5e 08 3e
       0.2738206 0.21249239 0.23587546 0.13317347
0003f0 bf 24 0d 3d 6b 33 be bd 42 fe 11 3e 99 b7 69 bd
       0.034458872 -0.09287151 0.14257148 -0.057059858

encoder1.2.bias f4 [16]
000000 c7 03 f2 3c 05 76 01 3e 6d fc 0e 3e 32 22 9c bd
       0.029542817 0.12642677 0.1396348 -0.0762371
000010 05 e9 de bd 65 d7 4c bd e7 74 42 3e 37 ff e1 3d
       -0.10884289 -0.050010104 0.18989907 0.110350065
000020 b3 40 2e bd 9a 5e b2 3d ff 31 5a 3d 3c 76 ed bd
       -0.04254217 0.0870945 0.053270336 -0.11594817
000030 f0 99 11 be a9 fa 43 3d 74 b5 61 3e 4f 76 5a bd
       -0.14218879 0.04784647 0.22041875 -0.053335484

encoder2.0.weight f4 [32, 16, 3, 3]
000000 02 98 31 bc 88 a3 8d 3d 5b ac 05 3e 0f c8 4a bc
       -0.010839464 0.06915957 0.1305403 -0.012376799
000010 9a 8f a6 bd 3f cc c2 bc d8 f5 88 bd a4 d7 b2 bb
       -0.081328586 -0.023779033 -0.06687516 -0.0054578353
000020 27 3b cc 3d 93 eb c6 bc 80 d6 2a 3d f1 29 97 bd
       0.0997222 -0.024282252 0.04170847 -0.073810466
000030 bd d4 b1 bc ee 5a ec bd 19 7e 6c bc a3 85 05 3e
       -0.021707887 -0.11540781 -0.014434361 0.1303926
000040 47 21 2e bd 83 1e e3 bc 22 e6 13 3e db 8a d2 3d
       -0.042512204 -0.02772451 0.14443257 0.10280391
000050 c4 97 4a bc 9d 9f 2a 3d 74 ee 79 3d fd d1 8d bc
       -0.012365285 0.041656125 0.061018422 -0.017312044
000060 b7 20 f1 bb f4 54 d4 3d b7 a4 6c bb 17 ea 4b bd
       -0.0073586362 0.10367766 -0.003610892 -0.049783792
000070 43 91 0c 3a b1 4e 58 3d cb 9c 9b bd ac 47 ff 3c
       0.0005362222 0.05280942 -0.07598265 0.031162106
000080 8a 89 76 3c 28 35 a4 bd bc d3 8f bd 16 da df bc
       0.01504744 -0.08017951 -0.07022807 -0.027325671
000090 1c f5 e7 bd 7f ae ea 3c 1d 35 33 bc c0 79 27 be
       -0.11326048 0.02864766 -0.010937956 -0.16355038
0000a0 4e c2 92 3d 29 ce a6 3d f0 fc 44 3d f6 28 89 bd
       0.07165967 0.08144791 0.048092782 -0.06697266
0000b0 4f ff 74 3d 5a 79 59 bd 0a b4 ef 3c 9d a8 3d 3d
       0.059813794 -0.053094245 0.029260654 0.04630338
0000c0 4f 1b 8c bd 7f be e3 bd d6 c7 74 bc b0 00 92 3d
       -0.06841146 -0.111203186 -0.014940223 0.071290374
0000d0 46 db 1d bd 2d 17 9f 3c aa 55 0f 3d a8 80 37 bd
       -0.038539194 0.01942023 0.034993805 -0.04480043
0000e0 1b ff 34 bd d0 82 1e 3d 5e 12 a0 bd 1c 9f 03 be
       -0.0441886 0.03869897 -0.07816003 -0.12853664
0000f0 54 98 7b bb d1 e4 09 be 71 e9 f0 bd fe b4 ed bd
       -0.0038390355 -0.13466193 -0.117632754 -0.11606787
000100 3c f9 8d bc 6d e9 a6 3d 60 e6 ac ba d1 43 26 3d
       -0.017330758 0.08149991 -0.0013191216 0.04059202
000110 fc a4 ad 3d c6 c7 cc bd 5e 05 35 bd bd df 1e ba
       0.08478734 -0.09999041 -0.04419457 -0.0006060561
000120 59 d2 fc bd 9c 22 c6 bc a2 bc 88 bc 61 a1 ae bd
       -0.12344808 -0.024186425 -0.01669151 -0.08526874
000130 4b 44 26 3d 10 73 0c 3d 5c b0 c7 bd 20 4d f8 3c
       0.040592473 0.03428942 -0.09750435 0.030310214
000140 49 27 20 3d 93 ee 86 bd 37 b9 23 bb 8c 76 aa bc
       0.039099965 -0.06588473 -0.0024982223 -0.02080848
000150 04 00 b8 bc f4 fa 95 bd 44 ea e3 3c 97 2a df 3c
       -0.022460945 -0.07323256 0.027821667 0.027241988
000160 8a 96 ad bd 77 03 9b bc 6d 0a e4 bd 4e d9 18 be
       -0.08475979 -0.01892255 -0.11134801 -0.14926645
000170 e9 89 f8 3c ba 16 c0 bc 8a 5c 81 3c d8 64 9e 3d
       0.030339198 -0.023448337 0.015791196 0.07734078
000180 39 e8 50 bd 19 5a c2 3c 81 9e a7 3b 08 45 3f be
       -0.051002715 0.023724603 0.0051153307 -0.18678677
000190 a7 3b cc 3c 57 52 fc 3d 89 aa 4f bd 3e 2f 8d 3c
       0.024930788 0.123203926 -0.050699744 0.01723444
0001a0 f3 03 92 3d 5b f6 88 bc 10 20 99 bc 6c d7 94 3d
       0.071296595 -0.016719034 -0.018692046 0.07267651
0001b0 ee 59 38 3d 56 90 7a be 43 4a 87 bb 7e 0d 99 3d
       0.04500764 -0.24469122 -0.0041287257 0.074732766
0001c0 1b 71 08 be 00 22 ff 3d 32 51 23 bb cf 5e 5a bd
       -0.13324396 0.12457657 -0.0024920222 -0.053313073
0001d0 aa 99 0d 3e 85 af 92 b9 06 18 8d bc 7f 1f 98 bd
       0.1382815 -0.00027978062 -0.01722337 -0.074278824
0001e0 8c e0 94 3d 00 cc 11 bc a7 db 2c bd b1 1e 0e 3e
       0.072693914 -0.008898735 -0.042201664 0.13878895
0001f0 29 d0 c0 bc 22 3f 98 bc 37 9e c3 3c ff 6c a8 3c
       -0.023536758 -0.018584792 0.023879154 0.020559786
000200 dd ca 0c 3e 2e 22 f5 3d f9 fb 2a 3d 58 50 a1 3d
       0.13749261 0.1196941 0.041744206 0.078766525
000210 9f b2 8b bb bb fd 29 3d 96 e6 9b 3d 73 1c ae bd
       -0.0042632367 0.04150174 0.0761234 -0.0850152
000220 f9 f1 84 3c 3d be 01 3e 7a 74 a7 bd 8f c1 de 3d
       0.016228663 0.12670226 -0.08176513 0.10876762
000230 b8 df 09 3e e5 aa ee 3c 9d 96 99 bc cd 69 fb 3d
       0.13464248 0.029134223 -0.018748576 0.12276039
000240 98 59 8b 3d 3a 35 d8 3c 3c 3f af bd 93 54 64 bc
       0.06804198 0.026392568 -0.08556983 -0.01393618
000250 48 68 0e 3b 38 93 87 3d 66 b0 7f bc 38 ed a3 3b
       0.0021729637 0.066198766 -0.0156060215 0.005002644
000260 9f 6c 2b be 74 50 53 3d 2d 0d 1c bd 9a 88 74 bd
       -0.16740654 0.051590398 -0.038098503 -0.059700586
000270 e5 b9 7a 3d 86 b7 11 3e 8d c4 bf bd 03 bd 06 3e
       0.06121244 0.14230165 -0.09363661 0.1315804
000280 65 4d ee 3d c6 0e 76 3d 2c 29 9a bc 17 55 9f 3c
       0.116358556 0.060072683 -0.01881846 0.019449754
000290 70 8d 84 bd ec 22 3d 3d 50 ef 93 bc 0d 95 9f 3d
       -0.064722896 0.046175882 -0.018058449 0.07792101
0002a0 8a 9e 3d bd 5e ab 36 bd 0d 6e e5 bc 48 56 eb bc
       -0.046293773 -0.044597022 -0.028006578 -0.028727666
0002b0 72 d1 a2 3d 7b 6d 18 3c 64 c3 4e bd fd cd 8f 3d
       0.07950105 0.009303446 -0.050479308 0.07021711
0002c0 b2 91 62 bd d6 49 75 bd 1b 3e 21 bd 24 42 b3 3b
       -0.055314727 -0.05988487 -0.03936587 0.005470531
0002d0 99 8d 79 3d 8b 9b 3d bd 82 87 60 bd be 2e 55 ba
       0.060926054 -0.046290915 -0.05481673 -0.00081322703
0002e0 b2 3a 6c 3b 29 d4 0b 3d a7 67 b3 3b 7f a8 76 bb
       0.0036045727 0.03413788 0.005475003 -0.0037637053
0002f0 0c 98 f8 3d ca 2e f4 3c df 1a 2c bc 0f ed ab ba
       0.12138376 0.029807467 -0.010504453 -0.0013116914
000300 63 21 f4 bd a4 3f 0a bd 96 9b 5e 3c cd ed 4f bd
       -0.119204305 -0.0337521 0.013586899 -0.050763894
000310 0f 70 52 bc ee e4 09 3c 18 f4 2e 3e a7 73 83 bd
       -0.0128441 0.0084163975 0.17085302 -0.06418543
000320 a8 19 09 be bd 92 fe 3d f0 36 18 be 41 cc eb bd
       -0.13388693 0.12430332 -0.14864707 -0.11513568
000330 59 34 56 3d c1 e1 a6 bd 91 5d 42 be d8 2a 05 be
       0.052296016 -0.08148528 -0.18981005 -0.13004625
000340 c8 b3 d8 3d ed 83 dd bc 94 fe c5 bd 2a 3e 0d 3e
       0.105811656 -0.027040446 -0.096676975 0.13793245
000350 51 ec 0f 3c 29 83 c3 bd 88 30 c0 3d 01 97 ba 3d
       0.00878437 -0.09546501 0.093842566 0.09110833
000360 3a 8b 80 bc 83 a3 af bd de 70 d2 3d 60 fb 12 bd
       -0.015691388 -0.08576109 0.10275434 -0.03588426
000370 24 f3 8b bd 10 1a 08 bd 81 4b a6 3d b8 a1 89 3d
       -0.06833485 -0.03322798 0.0811987 0.067202985
000380 bf f2 2b 3b 7f d7 7c 3d 74 a4 0b 3d 75 b9 24 bb
       0.0026237217 0.06172895 0.03409238 -0.0025134955
000390 8b e9 58 3e b1 89 9a 3d fa c0 d3 3c 9e 14 48 3c
       0.2118284 0.07545794 0.025848854 0.012211947
0003a0 82 5c 06 bd dd a0 c7 bd be f5 2e bc 94 50 44 bd
       -0.032803066 -0.09747479 -0.010678707 -0.047928408
0003b0 b1 c3 58 bd ba 77 8d 3d 3a 7e 32 bc 74 f2 52 3d
       -0.052921 0.06907602 -0.010894353 0.051500753
0003c0 72 14 a4 bd ed 1f 4f bc 57 de 94 bd 5f 54 7f 3b
       -0.08011712 -0.012641889 -0.072689705 0.0038960201
0003d0 28 27 3a bd 85 09 08 3d f7 8e 21 be 87 c9 77 bc
       -0.0454475 0.033212204 -0.15777193 -0.015123731
0003e0 79 41 61 3c 16 60 dd bd 0a 65 e4 3d 8d 64 02 3d
       0.01374852 -0.108093426 0.11152084 0.031834174
0003f0 93 6b aa bd eb 1e 5a be 53 fe bf 3d 15 e3 0d be
       -0.083212994 -0.21300857 0.0937468 -0.13856156

encoder2.0.bias f4 [32]
000000 87 93 73 3d 0e c4 30 3d 96 32 87 3d 29 ad 05 3c
       0.059466865 0.043155722 0.066014454 0.00815896
000010 00 37 a2 3c 5d d5 89 bd 9f 73 b5 bd 64 fe 03 3e
       0.019801617 -0.06730149 -0.088599436 0.12890011
000020 cb 73 83 3c 5b d2 27 3e 1a de 8a bb eb 86 8a bd
       0.016046425 0.16388838 -0.0042379024 -0.06764015
000030 1b 8d c4 ba 64 77 01 3c 9a af 18 3e 76 0f 07 3e
       -0.0014995666 0.007902 0.14910737 0.13189492
000040 61 f9 87 3d ca e1 98 3d 54 b9 4d 3d 70 d7 10 bd
       0.06639362 0.07464941 0.05022557 -0.035361707
000050 0d 5e 04 3d 28 f0 58 bd d8 68 90 3d b9 7f 13 be
       0.032316256 -0.052963406 0.07051247 -0.14404191
000060 f6 56 09 3e f8 d6 25 bd 3b 36 44 bd 35 a7 ea 3c
       0.13412079 -0.040488213 -0.04790328 0.028644184
000070 5d c5 02 3e df 87 e0 3d 72 3f 4e 3d 65 d4 02 3e
       0.127706 0.10963415 0.050353475 0.12776335

encoder2.2.weight f4 [32, 32, 3, 3]
000000 ab 7f 0c 3b 85 88 3d ba e8 68 0b 3d d0 b8 ad bc
       0.00214384 -0.0007230121 0.034035593 -0.02120629
000010 aa f3 92 bd 8a 05 8d 3c 58 5c a4 3b f0 7b 9e 3d
       -0.071753815 0.017214555 0.005015891 0.07738483
000020 b9 87 16 3d 23 89 da ba 63 81 7f bd b5 07 b0 bb
       0.03675053 -0.001667295 -0.062379252 -0.0053720125
000030 11 71 b4 3c 41 8b 2f 3d 7e 6e 0a bd f6 66 4b 3c
       0.02202657 0.042857412 -0.03379678 0.0124146845
000040 61 f3 b0 3c 4f 3f 0d 3d 60 3c 24 3e f1 b1 db bd
       0.021600427 0.034484204 0.16038656 -0.10727299
000050 2d 3b 94 3e 0a 22 7c 3c e7 1f fa bc 82 3e cb bc
       0.28951398 0.015388975 -0.03053279 -0.02481008
000060 08 12 c7 bd 5a c4 f4 bd e3 49 39 3d 31 97 cc 3d
       -0.09720236 -0.119515136 0.04523648 0.09989775
000070 09 e2 0d bd 26 ad 04 be a5 b7 4b 3d c2 bf c3 bd
       -0.034639392 -0.12956676 0.049735684 -0.09558059
000080 4e 07 f1 bc 9d b6 00 3e ea c3 04 3d e8 80 b7 bc
       -0.029422428 0.12569661 0.0324134 -0.022400334
000090 e8 be c5 3c 4a e1 78 3d 7b c1 b2 3d 50 9d 42 3d
       0.024138883 0.060761727 0.0872831 0.047513306
0000a0 43 d9 1a bd 86 f8 3a bd c6 19 93 3d cb 33 24 3d
       -0.037804853 -0.045647167 0.0718265 0.040088456
0000b0 1f 98 33 bd b0 d9 3d 3b 40 94 15 bd 28 fd 8d 3b
       -0.043846246 0.0028968863 -0.036518335 0.004333157
0000c0 ee c4 ce 3c 27 c2 06 3d 65 d0 29 bd 84 5d 11 3c
       0.025240388 0.0329 -0.041458506 0.0088723935
0000d0 62 0f 9b bc f6 9d 28 bd 71 ad 22 bd d0 8e f5 bd
       -0.018928234 -0.04116627 -0.039716188 -0.1199013
0000e0 66 5c 8b bd 8a 1e bb bd 28 81 2c bd ae cd 88 bd
       -0.06804733 -0.09136684 -0.04211536 -0.06679855
0000f0 96 24 99 3b 9d 70 bf 3d e8 97 a7 bc 9e 42 04 3b
       0.004673551 0.09347651 -0.020458177 0.0020181309
000100 8b 8d da 3c 92 89 ee 3d 77 3d 93 39 70 3e 0f 3e
       0.026678821 0.11647333 0.0002808382 0.13988662
000110 15 f1 a8 3d 0b 19 29 bd 9d 62 0a bd a7 9c 7d 3d
       0.08249108 -0.04128365 -0.03378545 0.061916973
000120 09 de 0d bd 9f 08 57 3c 8a 78 78 3c 59 47 cf bc
       -0.034635577 0.013124614 0.0151654575 -0.025302576
000130 9b 1f ee 3c 75 81 20 bd 39 4f 3a 3d 4d 44 a9 bc
       0.029067805 -0.03918596 0.04548571 -0.020662451
000140 8e b4 10 bc cf 22 c8 3c c0 f3 c3 3c 29 14 3a 3d
       -0.00883211 0.02443066 0.02391994 0.045429382
000150 88 ef 3d bc df aa ea 3d 83 cd 29 3d 7f a0 7a 3a
       -0.011592753 0.11458372 0.041455757 0.0009560659
000160 e2 ea 5a bc 4d 54 98 3d 13 4c 2b 3c 1e 94 be bc
       -0.0133616645 0.07437954 0.010455149 -0.023263987
000170 5a 34 29 bd d0 1c db 3a 6e ae 17 3a d7 fd 7a bd
       -0.041309692 0.0016716961 0.0005786185 -0.061277237
000180 9d 82 e4 3d e3 78 73 3d 9c ea 9b 3d 8b 8e 16 3d
       0.11157725 0.05944146 0.076131076 0.036757033
000190 70 f7 9c 3c 8b 09 32 bd 3e a7 da bc 0f 4f 14 3d
       0.019160956 -0.043466132 -0.026691075 0.03620821
0001a0 a9 45 c3 3c 46 74 57 3d db 2a 1f bd 59 cc b9 bc
       0.023836927 0.05260112 -0.03885923 -0.022680448
0001b0 7b 65 fa bc 65 6e 40 3d be ec d2 bc 2a f6 64 3d
       -0.030565968 0.04698028 -0.025747653 0.055898823
0001c0 08 2b 42 be db 72 36 3d ba 88 81 bd 6a 35 1f bb
       -0.18961728 0.04454313 -0.06324907 -0.0024293312
0001d0 91 16 6a 3d 22 cb 98 bb 99 68 1f bd bb 64 82 3d
       0.057150427 -0.004662887 -0.03891811 0.06366869
0001e0 4b 8c 76 bd 0a 75 1d bd 62 89 37 bc a2 eb 40 3d
       -0.060192388 -0.038441695 -0.011202188 0.047099717
0001f0 85 b6 7b bd 7f 7b 1a 3d f0 8e e1 3d fa 48 82 3c
       -0.06145336 0.03771543 0.11013591 0.015903939
000200 0c 0d ee 3d d4 d0 8e bd 9c 5d 91 3c 44 b7 58 bc
       0.11623582 -0.069734246 0.017744832 -0.013227288
000210 d2 d9 9f bd 5b c7 25 be ed 55 8d bd 5e 25 71 3d
       -0.07805218 -0.1618933 -0.06901155 0.058873527
000220 a2 83 74 bc 36 34 9c 3d 14 02 21 bd 86 ed 37 3e
       -0.014923962 0.07627146 -0.039308622 0.17961702
000230 a2 52 b2 3d 09 af 82 bc 07 1a 0b bd 91 78 3f bc
       0.08707167 -0.015952604 -0.03396037 -0.01168646
000240 bb fa 8b bd d0 b5 98 bb cb 2d 39 bd 81 36 03 be
       -0.068349324 -0.0046603456 -0.045209687 -0.1281376
000250 d2 42 93 bb 8f bc 79 bd a9 c2 4e bb 78 a6 79 bd
       -0.0044940496 -0.06097084 -0.0031549132 -0.060949773
000260 e5 92 3c bc 91 4e 28 bd e1 89 5f bd 38 53 46 bd
       -0.011509632 -0.04109055 -0.05457485 -0.048419207
000270 d9 f3 ba bd 2f 92 cc 3d 7e e1 fa bc db 92 6d bc
       -0.091285415 0.0998882 -0.030625101 -0.014500345
000280 5a 9b de 3c 99 65 0d 3d 22 fa 8b bc 63 1e 9b bc
       0.027173687 0.03452072 -0.017087046 -0.018935388
000290 18 2f 91 3d 0b be 04 3c 5d 91 ef bb f3 4e 97 3c
       0.070890605 0.00810195 -0.00731103 0.018470263
0002a0 78 c2 33 3c f8 54 c5 bd 3e 41 81 3d 48 a2 ff 3b
       0.010971658 -0.09635347 0.06311272 0.007801328
0002b0 46 96 cd bc 6d e6 35 3d b6 97 4b bd e5 ba c9 bd
       -0.02509607 0.044409204 -0.04970523 -0.098501004
0002c0 7b 8e f1 3b 17 b2 e7 3c 16 0e a1 bd cc 1f 27 3e
       0.0073717213 0.028283162 -0.07864015 0.16320723
0002d0 68 7b 86 bc 3a aa e1 3c 6c c3 da 3d fa 0d 77 bd
       -0.016416267 0.02754699 0.10681805 -0.060316063
0002e0 9e 62 25 3d 6b 53 25 bb bf 7f 29 bc ad 2e 48 3d
       0.04037725 -0.0025226723 -0.010345398 0.04887264
0002f0 5f af 0a 3e 12 d9 97 bd d8 da 7e bd 65 32 35 bd
       0.13543461 -0.0741445 -0.062220424 -0.044237513
000300 6b a1 0a 3d 3a 5c 45 3d 0d d9 8a bd c7 38 88 3d
       0.033845346 0.048183657 -0.067796804 0.066514544
000310 c8 05 c1 3d 16 6a 8b 3d 3c 0b 96 3c 28 6b 3b 3c
       0.09424931 0.06807344 0.018315904 0.011439122
000320 76 38 9d bd 38 42 90 bc ff 97 9a bd 98 bb 6f 3c
       -0.07676785 -0.0176097 -0.07548522 0.014632128
000330 70 22 b8 3c 80 02 b0 3d 10 a7 c5 bd ec 21 fc bd
       0.022477359 0.08594227 -0.09651005 -0.123111576
000340 94 05 21 be 85 61 61 be 7d c8 d8 bc cd ed 7e be
       -0.15724784 -0.22009857 -0.026462788 -0.24895401
000350 d7 f1 36 be d8 52 ee bc a7 3d 84 bd d0 3f 8b bd
       -0.17865692 -0.029092237 -0.06457072 -0.06799281
000360 95 ff d9 bc e3 e4 9a 3c ed 6b 7b bb b5 05 82 3d
       -0.026611129 0.01890797 -0.003836389 0.06348745
000370 34 7b 9d 3d ac e6 da 3c 7c 13 73 bd ca ca 22 3d
       0.07689515 0.026721321 -0.059344754 0.039744176
000380 8d 88 a5 bd 08 c2 8e bc 26 ce 02 bd 48 eb 4d 3c
       -0.080826856 -0.017426506 -0.03193488 0.012568302
000390 ef e0 a8 bd 49 a4 4f 3c 65 c7 7b bd c9 20 06 3e
       -0.08246028 0.012673446 -0.061469454 0.13098444
0003a0 0d cf 93 3d 12 04 35 3e a2 74 31 3a c4 e4 1f 3b
       0.07217226 0.17677334 0.0006769394 0.002439783
0003b0 81 1c 63 3d ee 48 08 bd 19 d7 c8 3b 80 42 b0 bc
       0.055447105 -0.033272676 0.0061291573 -0.021516085
0003c0 f2 9d 40 3c 5c 79 7f 3b ee 5e 15 3c ed 12 56 3d
       0.011756407 0.0038982248 0.009116871 0.052264143
0003d0 68 13 36 bd 8c e8 da 3d 33 22 67 3d ff a9 14 3c
       -0.0444521 0.10688886 0.0564291 0.009073733
0003e0 4c f6 ac 3d de 77 fc bc 0d 19 33 3d 77 44 34 3d
       0.08445415 -0.030818876 0.043725062 0.044010606
0003f0 c6 bc 0b 3e 60 30 f7 bd cc e1 4f be 51 95 8a 3e
       0.1364623 -0.12069774 -0.20300978 0.27067044

encoder2.2.bias f4 [32]
000000 79 38 1a 3a 14 34 43 bd b0 57 a0 3a 42 cb 12 bd
       0.0005883049 -0.047657087 0.0012233164 -0.035838373
000010 63 e3 32 be 03 e0 bc 3d ba 54 63 3d e0 8e dd 3c
       -0.17469554 0.09222414 0.055500723 0.027045667
000020 de 09 b8 bd 0a a4 63 3d 57 97 27 3d 60 e1 4d 3d
       -0.08986257 0.05557636 0.040915813 0.050263762
000030 b6 f2 c0 bb 7d c9 4f 3d bb 62 15 3d a7 96 a9 bc
       -0.0058883084 0.050729264 0.03647111 -0.02070172
000040 8b ea dd 3d c2 bd e8 3c fa 0a e5 3d 2b db 87 bc
       0.10835751 0.028410796 0.11183734 -0.016584
000050 40 eb 92 bd 46 62 eb bc 4f cf 1d be e8 33 d0 3d
       -0.071737766 -0.028733384 -0.15411113 0.1016615
000060 e1 1a ca bd 43 0a 10 3d c6 b1 a3 bd a5 70 a4 bd
       -0.09868408 0.035166036 -0.07992892 -0.08029298
000070 31 d5 b2 3c 1c 74 2c 3d 89 f5 43 3d 27 32 30 be
       0.021830173 0.042102918 0.047841582 -0.17206632

encoder3.0.weight f4 [64, 32, 3, 3]
000000 0d cf 38 3e 8d c9 55 3e dd 05 9b 39 6c 23 37 be
       0.18047734 0.20877667 0.00029568272 -0.17884606
000010 d8 69 81 be d1 fc 01 be 94 cb f8 bd 71 e0 67 bd
       -0.25276065 -0.12694098 -0.121482044 -0.05661053
000020 d6 53 9b bf 8e db 7a 3c 05 70 ae 3d c2 b7 b0 be
       -1.213496 0.015311135 0.0851746 -0.34515196
000030 b0 0e e5 3b 14 e4 bf 3d 62 12 30 ba 97 67 fb bd
       0.0069902763 0.09369674 -0.00067166064 -0.122756176
000040 94 11 7d bd 7e 37 dd be e9 73 3f 3c 0c 20 d9 bd
       -0.061784342 -0.432064 0.01168535 -0.106018156
000050 38 a2 f9 3d d3 69 50 3d 14 85 8c 3d 3c f7 1c be
       0.12189144 0.05088217 0.0686132 -0.15328687
000060 cf ac 8a 3e 3d c9 3a 3d 17 21 0c bf 51 ce 69 3d
       0.27084967 0.045602072 -0.5473799 0.057081524
000070 89 d0 ce 3c 77 ba 7a bc 25 14 f2 3d 45 29 9f bd
       0.025245922 -0.015303246 0.118202485 -0.077715434
000080 97 6e 52 3e 31 8e 85 be a0 4f 88 3e 18 bd cc be
       0.20549999 -0.26085046 0.2662325 -0.39988017
000090 5a 1b cf bd 45 69 37 be 5a c7 a7 be c6 e9 ac 3d
       -0.10112639 -0.17911251 -0.3276928 0.08443026
0000a0 0f e0 be 3d db c7 0e be 16 b5 b4 ba bd fb c3 3c
       0.093200795 -0.13943426 -0.0013786878 0.02392375
0000b0 9d 25 b3 bd 9f 15 19 be c7 d0 81 bd ff 2a e3 bd
       -0.087474085 -0.14949654 -0.06338649 -0.11092185
0000c0 56 b7 1c 3d 81 24 2d bd a6 25 28 3d 75 19 45 3d
       0.03826078 -0.04227114 0.04105153 0.04811998
0000d0 04 1e ee 3d 81 ed 7e bc 75 03 c6 3c 75 f3 1e 3d
       0.11626819 -0.015559555 0.02417157 0.038806397
0000e0 02 9f 62 bd d2 9a ca bb 01 34 bb 3d 4c 30 3e bd
       -0.055327423 -0.006183007 0.09140778 -0.04643278
0000f0 ac ac a9 bc cd f9 04 bd eb aa ae bc 36 5a 02 3e
       -0.02071222 -0.03246479 -0.021321734 0.12729725
000100 a8 81 2a 3e 61 d5 d1 be 38 73 9a 3d eb dc ef 3d
       0.16651022 -0.40983108 0.075415075 0.11712059
000110 a5 37 a9 3d 15 85 14 3e e3 2a ea bb 24 9a 1b bf
       0.082625665 0.14503892 -0.007146226 -0.60782075
000120 db 44 f3 3d b0 08 51 bc 83 35 ba be af 5a 99 3d
       0.118783675 -0.012758419 -0.3636895 0.07488
000130 ec 01 b1 3d 42 b5 c4 bd 4e 6c 2f be fe ad 35 3c
       0.08642945 -0.09604885 -0.17131159 0.011088846
000140 f7 84 84 3c 52 5b a2 bd c5 81 34 3d fd 57 62 bd
       0.016176684 -0.07927574 0.04406907 -0.055259693
000150 e3 90 45 be 7a 82 41 bd f6 0a 20 be b7 69 0e 3c
       -0.19293551 -0.047243573 -0.15629181 0.008692197
000160 d8 bb 70 bd b6 51 86 3c 6d bd f0 3d e5 bd 07 3e
       -0.05877289 0.016396385 0.1175488 0.13256033
000170 b9 46 ad be 91 f6 98 bc 63 f0 02 bc 89 63 cc bd
       -0.3384302 -0.01867226 -0.007991883 -0.09979922
000180 34 38 87 bc 55 c8 95 be 39 e1 04 bc 52 b3 3f bc
       -0.016506292 -0.29254404 -0.008110338 -0.011700468
000190 79 f2 b8 3c 42 19 99 be f7 1a 1c 3b 16 a3 27 3e
       0.022576557 -0.29902083 0.0023819783 0.16370806
0001a0 fc 42 2d 3e de 58 1c bc b5 e0 04 3e af 08 7e bd
       0.16920084 -0.009542672 0.12976344 -0.06202
0001b0 3f 44 de 3c 7d af 1c bf 15 0f 47 be ed 16 0b 3d
       0.027132152 -0.61205274 -0.19439347 0.03395741
0001c0 bb 6e 23 3d b3 f7 19 3f 3e a6 c1 be 6d 80 7d bd
       0.039900523 0.60143584 -0.37822145 -0.061890054
0001d0 45 3e ad be bd ef 3b bd 64 10 15 bd 05 55 b1 bc
       -0.3383657 -0.04588293 -0.036392584 -0.021646986
0001e0 3e 84 2c bc ed 6f 59 bd 31 5e 8e be 91 f5 d0 bd
       -0.010529576 -0.053085256 -0.27806237 -0.10203088
0001f0 e9 b3 9c bc d6 b8 f6 be 22 97 fb 3d 14 b0 91 bc
       -0.019128757 -0.48187894 0.12284686 -0.017784156
000200 82 38 e1 be a2 ab 5c bb 24 b1 ae bc 0e bd cf 3d
       -0.43988425 -0.0033671637 -0.021324702 0.10143481
000210 92 81 9a bd 7a 52 7c bd 27 51 11 bf 4e 3e bb 3d
       -0.07544245 -0.061602093 -0.56764454 0.09142743
000220 3a 48 88 3d 94 6a 12 be 60 99 72 3d 66 d6 13 3d
       0.06654401 -0.14298469 0.0592283 0.03609314
000230 4e a6 5c be 41 33 57 3c 63 1e a1 3d 15 23 09 be
       -0.21547815 0.0131347785 0.07867124 -0.13392289
000240 f2 74 0d bd 22 e4 e9 3d 7e f7 a8 bd 30 e1 54 be
       -0.034535356 0.11420466 -0.082503304 -0.20789027
000250 b1 6d 17 be 8a 89 e6 3d d9 20 9e 3d 6c 08 4d 3c
       -0.14787938 0.11256702 0.07721109 0.012514215
000260 98 7b cd be e6 b0 b5 bb 3a 14 27 3e 94 a5 7d be
       -0.40133357 -0.0055447696 0.1631631 -0.24770194
000270 18 c8 ae bd ca 95 ce bd 37 56 73 be e1 c4 aa 3d
       -0.085342586 -0.10087164 -0.23763357 0.08338333
000280 c3 8a 0a be 73 6b e0 bd 36 91 fb bd ca 7f 9a bd
       -0.13529496 -0.10957994 -0.12283556 -0.07543905
000290 ca 82 8f 3c fe ff 92 bc e1 e8 3d be 6d 9d 8a 3e
       0.01751842 -0.017944332 -0.18545868 0.2707323
0002a0 06 4b 54 3e 9e b8 74 3d ea 60 17 be 59 7a 0d 3d
       0.20731744 0.059746377 -0.14783064 0.034540508
0002b0 7b b4 bf 3c d3 86 a6 be c9 4f 1b bd e7 f2 ea 3d
       0.02340149 -0.32524738 -0.037917886 0.11472111
0002c0 38 e4 af bd 0e cf 19 3d e1 0f 30 bc 2b 89 e6 bd
       -0.08588451 0.03755098 -0.010745973 -0.112566315
0002d0 55 53 52 3d 6f c7 8d 3c 41 fa 03 be a7 4c 3e 3a
       0.051349003 0.017307011 -0.12888433 0.0007259347
0002e0 d0 32 9f 3c 60 f0 aa bd eb 5d bc 3d a4 65 34 bd
       0.019433409 -0.08346629 0.09197601 -0.044042245
0002f0 df 0a c3 3c 03 f6 70 3e 4c 5d b6 bd a5 6a fb bc
       0.023808895 0.23531346 -0.08904514 -0.0306905
000300 b5 2a d9 bd d2 a8 14 3e 22 41 99 3e 80 43 59 3d
       -0.10603849 0.14517525 0.29932505 0.05304289
000310 f4 28 82 3e 53 20 90 bd cc 66 ed b9 6e 41 aa 3d
       0.2542187 -0.07037415 -0.00045280752 0.08313261
000320 a0 de bf bd a7 88 75 bd 47 f2 c9 3d 82 96 19 bc
       -0.09368634 -0.059944775 0.09860664 -0.009374263
000330 3b bf 23 3d 7e c2 7b 3d e0 39 e0 3d 2f 41 86 be
       0.039977293 0.06146478 0.10948539 -0.26221606
000340 c3 a6 60 3c c2 37 43 3e 46 19 21 3e b3 2e 77 bd
       0.013711634 0.19064239 0.15732297 -0.06034727
000350 94 70 14 3f b6 88 3d bd 15 0c 86 3b bb b7 14 bf
       0.5798428 -0.046272956 0.0040907958 -0.5809285
000360 07 bd ab 3c bd 7b 60 3d d3 11 b0 bc bd a8 d5 bc
       0.020964159 0.054805506 -0.021492874 -0.026081437
000370 15 7e ba 3c 5c 33 07 3d 7c b3 3a 3c 1c 1e 77 bb
       0.022765199 0.033007964 0.0113953315 -0.0037707156
000380 c1 12 85 bc 78 a2 ef 3d 31 dc fa bd 65 22 91 3d
       -0.016244294 0.1170091 -0.122490294 0.07086638
000390 12 2a 39 3c a1 3b e7 bc 27 3c 09 be 87 01 24 b9
       0.011301534 -0.028226675 -0.13401853 -0.00015640828
0003a0 50 e8 6f 3e a1 4d 93 3d 65 ac 89 3c 2a 94 7b bd
       0.23428464 0.07192541 0.016805837 -0.061420597
0003b0 c8 25 30 bd 5c 85 e4 3c 4d 51 34 be eb 3a 77 be
       -0.04300478 0.027895622 -0.17609139 -0.24143569
0003c0 b5 47 e7 3d 9d 3e 15 3d dc 86 37 bd bf f8 18 3d
       0.11292974 0.036436666 -0.044806346 0.037346598
0003d0 df f3 b5 3c 73 84 d2 3b 9e f0 31 bd 30 a1 87 bd
       0.022211013 0.0064244806 -0.04344236 -0.06622541
0003e0 07 0a bf bb 38 39 e6 3c 73 0c 08 bd 66 3f b2 bc
       -0.005830053 0.028103456 -0.033214998 -0.021758746
0003f0 f9 d4 a5 3d 6f c7 b8 3d 7c 21 51 3e 0b ce 49 be
       0.08097262 0.09022414 0.2042293 -0.19707505

encoder3.0.bias f4 [64]
000000 54 8a 19 3d 96 3c cc bc b0 c3 a0 bd 54 c3 ae 3d
       0.037485436 -0.024931233 -0.078498244 0.0853335
000010 fe ed c2 bd b8 3a a7 3d fe 46 9a bc e7 be 1b bc
       -0.0951805 0.081654966 -0.01883268 -0.009505964
000020 e4 bf 06 bd ed b3 4b bb 54 79 f2 3d 25 77 3e bd
       -0.032897845 -0.0031082586 0.11839548 -0.046500344
000030 0b fb da 3b 24 6b 2f bd a1 8d e7 bd 9e 0e 9a 3d
       0.0066827587 -0.042826787 -0.113063104 0.07522319
000040 e3 78 12 bc 06 24 93 bd 7e 98 81 3c 40 0a ba 3a
       -0.008939954 -0.07184605 0.015819784 0.0014193729
000050 3f b6 2b bd b2 45 b9 bd 08 be b6 3c 7c b7 a7 3a
       -0.04192185 -0.090464965 0.02230741 0.0012795771
000060 df fe b1 bb fc d3 4d bd bc 55 b9 3c 98 4a fc bc
       -0.0054319943 -0.050250992 0.02262389 -0.030797288
000070 74 b1 74 3d 33 08 3c bd ba a5 8a 3d 4a f1 ac bd
       0.059739545 -0.045906257 0.06769891 -0.0844446
000080 1b d6 13 bd a4 6b 95 bd 92 6f 9b bc cc a3 03 3b
       -0.03609286 -0.072959214 -0.0189741 0.0020086644
000090 2c 8f 50 3c c9 67 b5 bc 61 d8 92 bb a8 6d e8 3d
       0.012729447 -0.022144215 -0.004481361 0.1134904
0000a0 fb 84 f5 bd 5e 28 7d bd ce f5 df bc eb d3 cb bd
       -0.11988255 -0.061806075 -0.027338888 -0.099525295
0000b0 4b 98 7c 3d 16 91 00 3e 4f 20 7a bd da 52 ac bd
       0.061668675 0.12555346 -0.061065968 -0.0841424
0000c0 07 55 7d bd 58 c1 c7 bc 25 5e 49 bd ac 14 8f 3d
       -0.061848667 -0.024384186 -0.04916205 0.06986365
0000d0 fb d5 ad bd 2f 3c a3 3d b5 ff 45 bd 43 09 5d 3d
       -0.08488079 0.079704635 -0.048339564 0.05396391
0000e0 77 b1 8f 3c 98 a8 0f bc c2 a0 90 3d 33 73 78 bd
       0.017540677 -0.008768223 0.07061912 -0.060656738
0000f0 aa ef 2f 3c 63 69 fb 3b 4a ab 71 be 14 52 8a 3c
       0.010738293 0.007672475 -0.23600498 0.016884841

encoder3.2.weight f4 [64, 64, 3, 3]
000000 49 15 0d 3d fc 5b 8c 3d d8 1b ca be 65 9e 68 be
       0.034444127 0.06853482 -0.39474368 -0.22716673
000010 bc 76 86 3e 56 25 b4 3e 7b 63 9c be 86 34 f9 be
       0.26262462 0.35184735 -0.30544648 -0.48672885
000020 39 9a 8c bd 4e 5c 46 3e 8c 06 b3 3d ff f3 4c bd
       -0.06865353 0.19371149 0.08741483 -0.05003738
000030 4e 34 d2 bd 71 34 ce 3c de 92 f8 3b 57 51 69 be
       -0.102638826 0.02517149 0.0075858673 -0.22784935
000040 4b 45 ec bd 6b 44 44 bc 3d 76 a3 bd 07 ea 70 bd
       -0.11536654 -0.011979203 -0.079815365 -0.058816936
000050 12 e3 04 bd b4 16 0a 3d 08 eb d2 bb 87 e6 be 3c
       -0.032443114 0.033713058 -0.0064367093 0.023303283
000060 73 29 ec bd 74 8b 81 3d 19 e4 52 3d 78 0a e4 3d
       -0.11531343 0.06325427 0.051487062 0.11134809
000070 02 a1 9b 3d e0 7d 80 3d 63 5d 74 be b9 11 10 be
       0.07599069 0.06274009 -0.23863749 -0.1406926
000080 32 d6 69 3c 8f f5 61 be 78 68 45 be 81 98 c3 be
       0.01427226 -0.2206633 -0.19278133 -0.3820229
000090 de e2 9e bd 2e ef 49 3e 58 0a f3 3d 6f 4b f3 be
       -0.07758115 0.19720146 0.11867207 -0.4751849
0000a0 25 b1 ab 3d 7e 68 a1 3d 8b dd 3a be 2c e8 a7 bd
       0.08383397 0.078812584 -0.18248574 -0.0819858
0000b0 84 bc 89 3e 59 fe 02 3e 5e 03 ac 3c 7d 55 3c 3d
       0.26901639 0.12792338 0.0209977 0.045979965
0000c0 60 59 8b 3d 54 48 90 bc 64 dc a8 bd d4 6e 77 3c
       0.06804156 -0.017612614 -0.08245161 0.015102107
0000d0 a4 8b 8d bd 02 45 4c be 23 89 ca bd 0c 05 94 3e
       -0.069114 -0.199482 -0.09889438 0.289101
0000e0 5a 2f da 3e f7 1f 44 3d b9 f4 84 be 43 5a 04 be
       0.4261425 0.047882047 -0.2596796 -0.12925057
0000f0 df 4e c2 3d fd c4 11 3e 4b be 1d be 86 0e de bc
       0.094877 0.14235301 -0.15404622 -0.027106535
000100 15 8d b6 3b 7a 3e 39 bd da 24 9f 3d 50 fc bd 3d
       0.0055710175 -0.045225598 0.07770701 0.092766404
000110 b5 88 56 bd e4 e1 3a 3d 4e 6d 6c 3e c3 1b e2 3d
       -0.052376468 0.045625582 0.23088571 0.110404514
000120 aa cf 60 3e 8d c3 a9 3d a1 24 3d be a4 54 2f be
       0.21954218 0.082892515 -0.18471004 -0.17122132
000130 e5 08 20 be 40 b8 ae 3e 62 eb 1e bd 6d c7 bd be
       -0.15628393 0.34124947 -0.038798697 -0.37066212
000140 f8 eb c6 be d6 1f d2 3d cd df 61 3d b2 9f 6f 3e
       -0.38851905 0.102599785 0.055145074 0.23400763
000150 8a f9 51 be ba d9 d9 bc 36 42 12 3e ae 14 d0 3d
       -0.20505348 -0.026593078 0.1428307 0.10160194
000160 5d be 44 bd 54 9c d9 bd 6b ca 55 bd b9 d8 a9 bc
       -0.048033107 -0.1062552 -0.052194994 -0.020733224
000170 64 56 03 be d5 28 b9 bd 78 b4 a4 bc 16 de 84 3d
       -0.12825924 -0.09040991 -0.020105585 0.06487672
000180 b2 f1 dd bd 36 39 50 3d c4 13 76 3e 4c a2 f1 bd
       -0.10837115 0.05083581 0.24030977 -0.11798534
000190 54 17 49 3d a0 18 a2 3d e2 42 ad bd 31 6e be bc
       0.049094513 0.07914853 -0.084600225 -0.023245903
0001a0 81 92 02 be e3 17 9f 3d af 27 4f bc 9c fd 22 be
       -0.127512 0.07768228 -0.012643739 -0.15917057
0001b0 04 49 cf bb 51 82 03 bd 3f ff 81 3d 45 19 0a 3d
       -0.006325843 -0.0321067 0.063475125 0.033715505
0001c0 30 5b d9 3c 99 dc d8 3c 91 ac 9c 3d 40 b7 c6 bd
       0.02653274 0.026472377 0.07650102 -0.09702921
0001d0 81 7a bf bd 89 c5 5d 3c 33 0f 1d 3e ec 8b 3f 3e
       -0.09349538 0.013535866 0.1533783 0.1870572
0001e0 4e 93 ba bd 8e 86 f7 bd d3 ca 37 be f7 a5 d3 3d
       -0.091101274 -0.12086211 -0.17948465 0.1033439
0001f0 43 1a 05 bd 7c b0 48 bd dc c5 11 bd c4 94 5f 3c
       -0.03249575 -0.048996434 -0.035589084 0.013646308
000200 89 78 cc 3d 31 02 2a 3e ab 9a b0 bd a5 45 1e be
       0.09983928 0.16602398 -0.086232506 -0.15456255
000210 56 7b 3b 3e fa b8 37 3e 39 3d 33 3e 6f f1 81 3d
       0.18308768 0.17941657 0.17503823 0.06344878
000220 79 cc 8f 3c 50 38 0c bb 29 1e 0f 3d cd 39 92 3c
       0.017553555 -0.002139587 0.034940872 0.017849827
000230 de e5 7b 3d 15 59 c8 bd fb 58 c7 bd af af 3c 3d
       0.061498515 -0.09782616 -0.097337686 0.046065982
000240 fc f8 81 be ac e3 14 be a9 64 f3 3c e7 54 8c 3d
       -0.25385273 -0.14539975 0.029711084 0.06852131
000250 0d 48 cc 3d 90 b3 e8 bd 5c f8 1c 3e b1 9a 2e bc
       0.0997468 -0.11362374 0.15329117 -0.0106569985
000260 52 13 eb 3c ae a6 de 3c 01 01 ec 3c d1 97 79 3d
       0.028695736 0.027179088 0.028809072 0.0609358
000270 32 ea a0 3c 73 61 80 3b df 72 6a 3c d3 72 01 3d
       0.019642923 0.003917867 0.014309614 0.031603646
000280 68 c9 a0 3c 66 b0 b4 bb 07 92 5d be 9c 0e 2e bd
       0.019627288 -0.0055141924 -0.21637736 -0.0424944
000290 b8 e8 ca 3d 22 82 45 bd c3 f2 7e bd bb bf c0 3d
       0.09907669 -0.048219807 -0.062243234 0.0941157
0002a0 14 aa d4 3d e3 07 93 3c a6 37 00 3e 81 1b 88 3e
       0.10384002 0.017948097 0.12521228 0.26583484
0002b0 d6 39 38 3e ed 17 00 bf e1 9b 99 3e bb 27 a1 3e
       0.17990813 -0.5003651 0.3000174 0.31475624
0002c0 38 7f f2 be a3 21 b7 be 08 00 af 3d c2 82 18 bf
       -0.47362685 -0.3576785 0.08544928 -0.5957452
0002d0 bb 7f e9 bc 29 8e c2 bb 6a 99 a3 3d ff 58 49 3d
       -0.02850329 -0.005937357 0.07988246 0.04915714
0002e0 01 97 bc bc 05 3f e3 3d 85 03 14 be f1 78 9f bd
       -0.023021223 0.110960044 -0.14454468 -0.077867396
0002f0 e2 2a f0 3d 11 e4 99 3c 58 c0 0e 3d dc 61 17 bc
       0.11726929 0.018785508 0.034851402 -0.00923964
000300 df 89 e6 3c f0 d3 75 bc 0f 19 c1 bc 7a 8b bd 3c
       0.028141914 -0.015004143 -0.02357152 0.023137797
000310 0f 17 e7 bb e4 e6 7b bb 22 51 85 bd 0f 6b e2 bd
       -0.0070523093 -0.0038437182 -0.065096155 -0.11055576
000320 35 ee 59 be 12 90 80 3d d9 57 9f be 20 2d 42 bf
       -0.21282275 0.06277479 -0.3112171 -0.75850105
000330 b4 ca e1 3c 49 ed 66 bc a0 56 ed 3d f7 71 a5 bd
       0.027562477 -0.014094659 0.11588788 -0.08078378
000340 98 07 f0 bd d6 3d 4c 3d bc 6a 6f 3d 95 36 a8 3c
       -0.117201984 0.04986366 0.0584514 0.02053384
000350 4e b5 86 bd e4 8a 92 bb c2 2a ed bb ff 70 5d 3d
       -0.0657755 -0.0044721235 -0.007237763 0.05406284
000360 42 16 f4 3d 96 a9 98 3d e5 73 25 3d bb a4 c4 bd
       0.11918308 0.07454221 0.04039373 -0.09601732
000370 d7 24 92 bc 9c 44 33 bc d8 0f 34 3d 6a 58 1e bd
       -0.017839832 -0.010941651 0.043960422 -0.038658537
000380 c7 27 9c 3c 59 be b2 bd 76 43 9b bd 2c f4 df bd
       0.019061936 -0.08727712 -0.075812265 -0.10935244
000390 67 fc 73 3d ce 40 89 3d 80 68 ca bd a0 86 97 3d
       0.05956688 0.06701814 -0.09883213 0.073987246
0003a0 fd 57 14 3d 02 8f 05 3e 79 cb 7a be 58 7b 6e be
       0.036216725 0.13042834 -0.24491681 -0.2328924
0003b0 1f 1c 82 3e 7a 8a 29 3d 0b 53 25 3d c2 4b 11 be
       0.2541208 0.041391827 0.0403624 -0.14189056
0003c0 35 fc a4 bd 26 0d 1f bd 4f 51 8a 3d 91 56 70 be
       -0.08055917 -0.0388309 0.0675379 -0.23470522
0003d0 9d f4 6d bd 8d ac c2 3c 50 c7 0c 3d 5c 6d 3e be
       -0.05809461 0.02376392 0.034369767 -0.18596405
0003e0 84 a5 ea bd 7e fa a0 3c e0 25 45 3d 73 3f fc 3d
       -0.11457351 0.019650694 0.048131824 0.123167895
0003f0 96 8b ab 3d 9d ff 9a 3c 9f 68 7e be 24 cb 5c 3d
       0.08376233 0.018920714 -0.24844597 0.053904667

encoder3.2.bias f4 [64]
000000 36 50 80 bd df 53 1d bd 50 bf 88 bd 8b 8b 13 bd
       -0.06265299 -0.038410064 -0.06677115 -0.03602175
000010 65 82 59 bd fe 76 36 bd 34 a5 92 bd 1d 9e 7c bd
       -0.05310287 -0.044547074 -0.07160416 -0.061674226
000020 72 5b e8 bd 67 15 82 bd e8 b4 de bd af c5 12 bc
       -0.11345567 -0.063517384 -0.10874349 -0.008958264
000030 b5 42 e6 bc eb 86 07 bd 87 75 9e bd fb ce e9 bd
       -0.02810798 -0.033087652 -0.0773726 -0.114164315
000040 db b2 bf bc 94 a7 7b bc 7a e1 e8 bc ca fb ee bd
       -0.023400715 -0.015359778 -0.028427828 -0.11669119
000050 9a 95 90 bd 74 14 98 bd f9 2c b4 bd b3 f8 16 3d
       -0.07059784 -0.07425776 -0.0879764 0.03685827
000060 d2 2c be bb 34 b2 da bd 41 66 03 3e 14 09 b4 bd
       -0.005803683 -0.10678521 0.12831976 -0.08790794
000070 dd 8d 14 bd a8 6f cb bc 53 08 62 3d 87 28 2e bd
       -0.036268104 -0.024833515 0.05518372 -0.04251912
000080 fb e6 0d bd 9a aa 4f bd 56 fa a2 3b 35 aa cc bb
       -0.03464411 -0.050699808 0.00497369 -0.006245876
000090 02 64 97 bd a2 5f 17 bd 8a 2e 22 3d 59 bb a2 bd
       -0.07392122 -0.036956437 0.039595164 -0.0794589
0000a0 46 35 11 bc 7e 7f 36 3d a3 27 96 bd 08 cf 42 bd
       -0.008862799 0.04455518 -0.07331779 -0.04756072
0000b0 45 d0 68 be 97 19 03 be e5 b5 25 bd aa e3 8d bd
       -0.22735699 -0.1280273 -0.04045667 -0.06928189
0000c0 6f 20 8c 3c 99 c4 b0 bd 38 e0 9c bd 84 f2 b4 bd
       0.01710531 -0.08631248 -0.07659954 -0.08835319
0000d0 d5 f1 16 bc 44 65 c9 bb d8 96 83 bb 65 0b b9 bc
       -0.009212931 -0.006146105 -0.0040157847 -0.022588441
0000e0 70 c8 7f bd ed 8d 0d bd 07 9a 19 be b3 93 2d 3e
       -0.06244701 -0.03455918 -0.15000163 0.16950874
0000f0 00 bc bf bc 02 1c 1b bd 80 cf e6 bc 19 d2 32 bd
       -0.023405075 -0.037868507 -0.028175116 -0.043657396
