satelliteremoval.pth (torch, 481674 bytes, 24 tensors)

encoder1.0.weight f4 [8, 3, 3, 3]
00000000: 1e9c d0bd ad2f c73d 33e4 28be 28c9 40bc
00000010: e800 3d3e 3fa3 843c 15f8 a83d fd9e 8cbe
00000020: 6da9 793c c355 13be 61e9 013e 0bef f5bd
00000030: 0541 d8bd 850e df3e 29da fe3c fa1f 843c
00000040: 9440 98bd 72e5 35bd 8efa f53d f8b6 173e
00000050: c366 e23d 5f29 073e 042b 963e a5d4 bfbd
00000060: 32ea d53d 9d53 f93d 13af 823d 5530 b1bc
00000070: 1c8e 4f3e 728b 47be 7c59 053e 6e3a d03e
00000080: fa27 7d3d c2fe 64bd 9aef 543d 8826 19bd
00000090: 6ed1 d1bd dafa df3d b4be 0abe 0ada 423d
000000a0: d2f4 78be f0d0 5cbd 31c5 2b3c e39e d73d
000000b0: 9764 fd3d 4d2b afbc 11fb 87ba 60bf 283e
000000c0: 6548 6d3d 7150 4dbe d987 113d 0bc3 bebd
000000d0: ecad 38be 2a82 a7bc ec67 6bbd beac b33d
000000e0: 16e7 5e3d d60e d9bd 554a c23e edbb 3c3e
000000f0: f18d 3f3e 67df 5f3e ef93 be3d efd4 e13d
00000100: 64ee 923d 0fff a83d 6fe2 e1bd e859 803d
00000110: 2bd0 eb3c fc4c a4bc aa17 18be 82e1 bfbd
00000120: a086 283c f72a 573b 0fe5 22be 449d 5e3d
00000130: e58a afbe 645f cdbc d819 c438 b550 073e
00000140: aae4 dbbd 7822 08be d3fa 3e3e dc12 9dbd
00000150: 4229 e1bd 40c7 353b 6034 c0bd 6068 60bc
00000160: 8bc5 2fbe fdb1 253e ba27 ffbd 58da a4bd
00000170: 4331 0fbe 852e cbbd f632 c23d 8edf 843d
00000180: a8eb e3bd e0c4 8b3b 64e7 55bd 0e29 e03d
00000190: 0ee5 b63d 109c fabc 80e7 2abc a19e dabd
000001a0: e865 0abe 44ac 3cbd 1cc9 5dbd 4521 a6bd
000001b0: e322 aa3d 5ec1 0ebb 02d7 613d 9429 213e
000001c0: 32f9 9f3d 6175 543e fc2d 463e 4dc1 edbc
000001d0: 9a0b 173e 4c8b 78be 070f 06be d1f6 56bd
000001e0: 8783 7dbd 0fa1 34be 3fca d4bb 3e5c e5bd
000001f0: e6e9 26be b42d 41bd b25e 7f3d b27c fabd
00000200: 9764 bf3d a77b 7c3e 6174 823e a274 efbd
00000210: d8b7 133e d23b b53d 7526 a2bd 388f f13c
00000220: 63e8 42bd c95d 9f3d f107 463e 3023 8ebd
00000230: d80e 2bbd f0b7 fa3d b04b d2bd a7ca 0f3e
00000240: 81c8 99bd 2f86 3bbc 6d1e dfbb 81a3 8bbd
00000250: b774 7b3b 0b8f 8b3d 518e f3bd eb1a 303d
00000260: 9b02 833d f930 40be bfd4 bd3d edd3 923c
00000270: b392 d63d 9e9c bebd 962a c3bd 3474 12be
00000280: b812 99bd 412e cb3d aaa3 cebb 8e68 dfbd
00000290: 9a0f 193d 0cd9 c43c cc24 553e 52ec 183e
000002a0: 9189 12be 2756 763d bde7 8fbd e91c d43d
000002b0: 1ed8 3b3e 5e63 bf3c 1533 313e 05f9 e43e
000002c0: 429e d93c 7693 ad3d 37b2 70bd b927 153e
000002d0: 16b3 f7bd 32ec 18be d1d4 e6bc 24bd 3b3b
000002e0: 63f0 533e a4dd a5bd 64b6 e6bd c128 35bd
000002f0: a0d2 963d 9ecc 22be 103b 93bd 7bea 39bd
00000300: 50c2 183d fbe2 15bd 0ef7 41be b509 a8bd
00000310: b708 09be 9f68 273e 7c70 333d d6a1 f93d
00000320: b7e4 1fbe fa72 16be 9937 073e 9996 a23d
00000330: 2ed2 e23d e928 e73d cdca 2c3d 7289 a6bd
00000340: 853a b3bd 08c6 e83d 30fc 41bd 1c55 a43c
00000350: 4b70 a5bd c091 d7bd 4216 14be c51f 693d
-0.10186027 0.0972589 -0.16493301 -0.011766709 0.18457377 0.016191123 0.08250443 -0.27465048
0.015238148 -0.14388184 0.12686683 -0.120084845 -0.105592765 0.43565765 0.031109886 0.016128529
-0.07434192 -0.04440827 0.1201068 0.14815891 0.110547565 0.13199376 0.29329693 -0.093667306
0.1044506 0.12174151 0.06381049 -0.021629492 0.20269054 -0.19486788 0.13022417 0.40669578
0.061805703 -0.05590702 0.051986314 -0.037390262 -0.10245024 0.10936518 -0.1354931 0.04757122
-0.24312142 -0.053910196 0.010484026 0.10528352 0.123727016 -0.021382952 -0.0010374506 0.16479254
0.05793037 -0.20050217 0.035529945 -0.09314545 -0.18035096 -0.02044781 -0.057472154 0.08773182
0.0544196 -0.10598533 0.37947336 0.18431063 0.1870649 0.21862565 0.0930556 0.11026942
0.07174376 0.082517736 -0.11029517 0.06267148 0.028785786 -0.02005624 -0.14852777 -0.09369184
0.010286003 0.0032832006 -0.15907691 0.0543492 -0.34285656 -0.0250699 9.350822e-05 0.13214381
-0.107369736 -0.13294399 0.1865037 -0.07669613 -0.109941974 0.002773717 -0.0938499 -0.01369676
-0.171652 0.16181178 -0.12458749 -0.08049458 -0.13983636 -0.09920982 0.09482376 0.06487952
-0.11128932 0.0042654127 -0.052222624 0.109453306 0.089304075 -0.030591995 -0.01043117 -0.10674787
-0.13515437 -0.046062723 -0.05414687 -0.081118144 0.08307435 -0.0021782736 0.055136688 0.15738517
0.07811202 0.20747901 0.19353479 -0.029022837 0.1475052 -0.24271888 -0.1309167 -0.052481476
-0.061893012 -0.17639564 -0.006493836 -0.111992344 -0.16300163 -0.047162727 0.062346168 -0.12230815
0.09345358 0.24656545 0.25479415 -0.11692168 0.144256 0.088493004 -0.07917491 0.029487237
-0.047584902 0.0778156 0.19338967 -0.06940305 -0.041762203 0.122421145 -0.102683425 0.1404215
-0.07508946 -0.011445566 -0.006809047 -0.06818295 0.0038369128 0.06814393 -0.11892379 0.04299442
0.06396981 -0.18768682 0.09269094 0.01792332 0.104771994 -0.09307216 -0.09529607 -0.1430214
-0.074742734 0.099209316 -0.0063061314 -0.10908614 0.037368394 0.024029277 0.20814818 0.14933899
-0.1431029 0.060140755 -0.070266224 0.10357077 0.18344161 0.023362812 0.17304642 0.44721237
0.026564721 0.084753916 -0.05876371 0.14565934 -0.12094705 -0.14933851 -0.02817765 0.0028646672
0.20697169 -0.08098915 -0.11265257 -0.04422832 0.07364392 -0.15898368 -0.07189 -0.045389634
0.037294686 -0.03659342 -0.189419 -0.082049765 -0.1338223 0.16348504 0.043808445 0.12189071
-0.15614592 -0.14692298 0.13204803 0.079388805 0.11075245 0.112871 0.042185593 -0.08131684
-0.08751396 0.113658965 -0.047359645 0.020060115 -0.08078059 -0.105258465 -0.14461616 0.056915063

encoder1.0.bias f4 [8]
00000000: 430a 45bd 88df 953d 54bf dabb a68d acbd
00000010: 01c2 c5ba 38e6 18bf 323d d6bd a219 15be
-0.04810549 0.07318026 -0.00667564 -0.08425455 -0.0015087725 -0.59726286 -0.10460891 -0.1456056

encoder1.2.weight f4 [16, 8, 3, 3]
00000000: 2fca 5dbc 6ebc ef3d c82a 19be c799 d43d
00000010: 3fff 2e3e 6f32 823c 0da3 03bc 904d da3b
00000020: 0fd1 433d d02f ac3d 720d 2a3c 1df2 ac3d
00000030: 3f11 fb3d 02ae 1fbe 060f 453e de73 8e3d
00000040: 4ed1 a6bd 3ba8 b13c 8ea3 803d 0997 e03c
00000050: 6c85 683c 1286 48bd 3dc7 9bbe 40c9 963d
00000060: 34cd 08bd e8ff df3d 7b1f d7bd 3e6a 85bd
00000070: 35aa 9e3d 8ab3 373d 9006 83bd 970e ed3d
00000080: 28b4 96bd 9bf9 e03d 79ce b7bd 75e5 b5bd
00000090: 1392 18bb b0ec a73d f957 8b3d 5386 bcbd
000000a0: 467c 3c3c 0ee1 2b3e 430b 0a3d 41e5 02be
000000b0: c200 c7bd 1c47 9c3e 86c1 90be 3fb7 a4bd
000000c0: 5196 19bd 93a5 02be b96c 24bd c184 acbd
000000d0: 84e0 0fbe 321b 14be 0a65 2dbd 2dae fd3d
000000e0: 812a e1bd 611a 4a3c 8c1b 283e 63fd 38bd
000000f0: 9ca5 2cbd 9f66 70bc bd37 e9bd 190f b5bd
00000100: bc2d fc3c 5625 103d 82df c5bd 4876 0a3c
00000110: 070e b83d 7e10 833d 5ad9 75bd bc3f 9dbd
00000120: 38e8 24bd c903 c03c 3a7f a63c 32c9 883d
00000130: f418 4dbe f147 e33b b22e 10bd db8f c8bc
00000140: ac83 8bbc 7c1e 0e3d 3dbf fcba fa67 c5bd
00000150: fe9e 633d 9595 8bbd 1ba9 02be 59b0 17be
00000160: ece2 d13c 841d ea3c fa33 0ebe 7703 5c3e
00000170: dc84 4ebd b72e 313d be75 5ebe 4d8c 433d
00000180: cb49 d9bc d8e9 34bc b5c2 2e3d 6d52 c13d
00000190: 6c9b 9fbc 309a 7fbd 1704 dc3d 51aa e73d
000001a0: 7b8f 893d ea48 6b3d eb0d 963d 9f90 9d3d
000001b0: a32b ddbd e061 413e 94d1 a7bd 19cb 573e
000001c0: 1a14 05be b39a 333e 9ca2 6abd 99c4 013e
000001d0: bdae 7abd 5a27 053d 54c2 36be 8ce6 a7bd
000001e0: a4a0 6b3d 29f0 24bd 4120 98bd 2634 c83d
000001f0: 40b0 b73d 6036 a1bc f054 7dbd dfc0 3b3e
00000200: 32ee 92bd 37bf 813c eaa4 1c3e 687d 8dbd
00000210: a79c 833d dd99 c93c bc2e 5abd bf67 45bd
00000220: 0398 583d 4c9f e33c 0ab8 0abd 7a9f 05bd
00000230: 88ea 783c cde3 2abc 3fa5 c63d d294 2e3d
00000240: 2f46 50bd e763 613e 0098 c03d e64e 533d
00000250: 0976 27bd 0751 573e 0c02 3b3d 660f 283e
00000260: 5370 8abc bd8e b3bc ad24 00be a307 af3d
00000270: 4644 9ebc 781c a7be ffa1 bfbd 9866 bf3e
00000280: b20a 1dbd 4a20 9d3c a4fa 5fbc 4788 cb3d
00000290: 522b 1e3d 5cc9 7ebe f3e2 25be 526a c03c
000002a0: 0669 ca3d e836 07be a46e 80bd 2435 4bbd
000002b0: 1082 9cbd c57b 873d 25d4 bc3d 3a04 183d
000002c0: f829 8bbd 3248 223d 7621 343d 6a3f ccbd
000002d0: acdf 03bb 971a d13c d43e 7fbd b400 ae3c
000002e0: 3662 3c3d 598b 89bc ea04 993c 72fd 633c
000002f0: 40d0 e03d fe82 a6be 938f 09be 0acb 06bc
00000300: d80a 5f3e 92c4 e1bd 1e43 58be 7f58 37bd
00000310: 0ac1 60bd 530c 983c f2d1 6abd 9d63 aebd
00000320: 2ce5 fe3c 78a6 80bc ec70 413c 1f8f 77bd
00000330: f58b 3cbe ced0 b73b 6471 85bc 8b15 9a3d
00000340: c334 98bd a6cb 6d3d aad4 9abc da29 35bd
00000350: fa7a 0e3d cf49 8d3d f4db 0a3d e836 c8bd
00000360: fe36 d03d e5ac 193e 4b85 82bd 0a9d dfbd
00000370: 30b2 123e 695d b1bc 8710 f9bb a197 473e
00000380: 97c5 babd 9117 acbd d104 8abe 411c 2f3b
00000390: e889 a43d 4461 8f3e bea5 823d a1a1 a73d
000003a0: 7c02 fbbb 168b c03d 3b7e 3e3d e0fd 203e
000003b0: 0003 dfbd bede cf3d 8ac2 3abe be17 8ebd
000003c0: 7cb1 c5bd 83ab 563c a82b 84bd b905 6fbd
000003d0: 2dfc e23d 8a9e 5fbd 2664 0dbd 68af ecbd
000003e0: 4828 91bd c83e b4bd 9e91 26bd 86a6 393d
000003f0: 90a9 2f3d b378 143c d9a3 e4bc 0a54 26be
-0.013536974 0.11705862 -0.14957726 0.10380893 0.17089556 0.01589319 -0.00803448 0.006662078
0.047806796 0.08407557 0.010379182 0.08444617 0.12259149 -0.15593722 0.19244012 0.06955694
-0.081453905 0.021686664 0.062811956 0.02741577 0.0141919665 -0.048955984 -0.30425444 0.07362604
-0.033398822 0.10937482 -0.10504051 -0.06514405 0.07747308 0.044848956 -0.06397736 0.115750484
-0.07358581 0.109851085 -0.089749284 -0.08881656 -0.0023280426 0.081994414 0.06803889 -0.09205308
0.0115042385 0.1678507 0.033702146 -0.12782766 -0.097169414 0.30523002 -0.28272647 -0.08042764
-0.03749687 -0.12758474 -0.04014275 -0.08423758 -0.1405049 -0.14463499 -0.042332686 0.12386737
-0.10994435 0.012335391 0.16416758 -0.045163523 -0.042150125 -0.014672904 -0.11387584 -0.0884077
0.030783527 0.035191856 -0.09661771 0.008451052 0.089870505 0.0639963 -0.060021736 -0.07678172
-0.040260524 0.023439305 0.020324338 0.06679 -0.2002905 0.0069360663 -0.035200782 -0.024482658
-0.01703056 0.03469704 -0.0019283068 -0.096389726 0.05557155 -0.0681564 -0.12759821 -0.14813365
0.0256209 0.028578527 -0.13887015 0.21485697 -0.050419673 0.04325744 -0.21724603 0.047741223
-0.026524445 -0.011042081 0.042666156 0.094395496 -0.01948329 -0.062402904 0.107429676 0.11311782
0.0671682 0.057442583 0.073268734 0.076936 -0.10799339 0.18884993 -0.08194271 0.2107357
-0.1299595 0.17539482 -0.057283983 0.12672652 -0.0612018 0.03250823 -0.17847568 -0.0819827
0.057526246 -0.040268097 -0.07428027 0.097755715 0.08969164 -0.019679248 -0.06184858 0.18335293
-0.071743384 0.015838249 0.15297285 -0.06908685 0.064263634 0.0246095 -0.053267226 -0.048194643
0.052879345 0.02778592 -0.03386692 -0.03262279 0.015192635 -0.0104302885 0.09699487 0.042622395
-0.050848182 0.22010766 0.09403992 0.051588915 -0.04088405 0.21027003 0.04565625 0.16412124
-0.016899263 -0.021918649 -0.1251399 0.085463785 -0.019319665 -0.32638907 -0.0935707 0.3738296
-0.038340278 0.019180436 -0.013670597 0.09938102 0.038615532 -0.248815 -0.16199856 0.023488197
0.09883313 -0.13204539 -0.06271103 -0.049611226 -0.07641995 0.06615404 0.09220151 0.037113406
-0.06795114 0.039619632 0.043977223 -0.09973033 -0.0020122332 0.025525374 -0.062315777 0.02124057
0.0459921 -0.016790079 0.018679101 0.013915407 0.109772205 -0.32521814 -0.13433675 -0.008227119
0.2178148 -0.11023821 -0.21119353 -0.04476213 -0.054871596 0.018560564 -0.057329126 -0.085150935
0.031115137 -0.015704378 0.011806708 -0.060439225 -0.18412764 0.0056096083 -0.01628942 0.0752364
-0.074319385 0.058055542 -0.018900234 -0.044229366 0.03478525 0.068988435 0.03390117 -0.097760975
0.10166739 0.1500736 -0.0637308 -0.10918625 0.14325786 -0.021650987 -0.007600847 0.19491436
-0.091197185 -0.084029324 -0.269568 0.0026719721 0.08034116 0.28003895 0.06379269 0.08185125
-0.0076602083 0.094015285 0.0465071 0.15721846 -0.10889244 0.101499066 -0.18238273 -0.06938122
-0.09652993 0.013102415 -0.06453639 -0.058355067 0.11083255 -0.054594554 -0.034519337 -0.115568936
-0.07087761 -0.08801037 -0.040666215 0.045324825 0.042886317 0.00906198 -0.02791016 -0.16242996

encoder1.2.bias f4 [16]
00000000: d2c6 053d 51d9 3b3d a6aa 273e a95c 78bc
00000010: 7f88 74bd 42bd 223e b85f fb3d c5b4 723d
00000020: 2684 86bd 7daf 6b3c 0172 473d 3fb9 823d
00000030: 8762 c5bd c4c5 483e 9e88 66bd 3a7c 133d
0.032660313 0.045861546 0.16373691 -0.015158811 -0.059700485 0.15892509 0.12274116 0.059254427
-0.06568174 0.014385101 0.048692707 0.06382989 -0.09637933 0.19606692 -0.056282632 0.036007144

encoder1.4.weight f4 [16, 16, 3, 3]
00000000: e551 323c f9d1 a0bd a10b 6abd cce5 f43c
00000010: 9065 9bbd 6eeb 94bd a090 153d c246 1b3d
00000020: 285e 9e3d 66d7 033d fa94 e6bc 9cf5 fc3c
00000030: 7f25 2dbd 3843 3b3b 6f69 6ebd e917 b03d
00000040: a8e8 153c 3c91 54bb 4767 21bd 28a6 ebbb
00000050: f900 7f3d 76a7 5fbd c185 8abc 61b5 463d
00000060: a8fe bc3d 2fe4 eabd d41c a6bd bbca 27be
00000070: afcc 38be e407 b0bd cac1 00be 26bf 9a3d
00000080: 6608 843d 23f6 f0bc 95c0 dd3d 9581 40bc
00000090: b04b 6d3d a8ea f83d 11d2 843d ae3c 083e
000000a0: fb6f b63d 7700 2d3d f393 e53d b64d 263e
000000b0: 5659 6c3c e5d7 c33d f098 94bc 73ac 103e
000000c0: 392f e73d 7718 183d ff11 a1bd 394a 5b3d
000000d0: 0148 9dbd 6a91 f7bc 2bad 8bbc a7f2 523c
000000e0: 0fc3 c33d fd48 93bc 491d 433d bcb3 91bd
000000f0: cf1f 1e3b 5912 3e3d 150f 2abd 512b 983c
00000100: 5aa0 6c3b 4bbb 4b3b cffe 333d a6d0 183e
00000110: 1fc3 ad3d 5902 973d 752c 1c3e 18e7 30bd
00000120: b865 1dbd a7b0 9a3d e071 88bd 0082 9c3c
00000130: 2b85 673d ff74 263c 5ab3 6e3d e955 ee3c
00000140: 3f3e 8fbd b578 56bd 7b7e 1bbd e803 85bd
00000150: 399e c0bd 72e7 3cbc f69a da3d 44e1 adbd
00000160: 1a7c 38bd 3cd1 2fbd 2dae d7bc 4ea3 a83d
00000170: fe72 dc3c 3f36 21be 9f0b cb3c 8a4b 513d
00000180: 1b18 f6bd 56b9 a33d d7e1 03bd 3ce7 923d
00000190: ef63 91bd 5ba7 3f3d 1f6b 593d 3062 d9bd
000001a0: 4012 623d def1 94bd 4af5 49bc f482 1e3d
000001b0: 2beb 133d a82b 903d 2b4a a3bd b9b9 983d
000001c0: 5f5e eb3d fb22 78bd 56aa 0d3e 8984 023e
000001d0: 8a49 e23d d5fe 24bc 87e3 acbd cd98 af3d
000001e0: e58e 23bc af4a c7bd 475c 7a3d 50e6 cdbc
000001f0: d601 923d c685 043d 54c4 e83c 2398 e3bc
00000200: 8d63 3b3a 76d2 cd3d 28b7 553d e51c 85bc
00000210: d02b 9a3c a558 8e3d 7939 b9bd 33f8 d33c
00000220: fb3c e8bd a24f 79bc baab 0b3d 336b 943d
00000230: aa45 e2bc 6d87 503d 66a6 063e 3fe0 c8bc
00000240: 6359 b0bd eeed 8ebd 9094 94bd 81da 2d3b
00000250: f827 ce3d eef9 093e 9f1a 8e3d ef01 e43d
00000260: eedb 46bc c27c 163e 64c1 e43c f170 23be
00000270: 89ab 973c 354a 03be f4f6 e23d 8d26 8c3c
00000280: 0ce1 9e3d 3aed 3bbe 491d c03d f200 3b3e
00000290: 68d4 863d 95c1 093c 3952 063e a766 6e3e
000002a0: 5b22 a7bd 57bc 443d 1b07 9cbd a1f8 14be
000002b0: 6ab8 043d a317 dfbd 428d 143e ce48 60bc
000002c0: 8307 14bd 1c96 f3bd 5282 8b3d fbbc fdbc
000002d0: 56cc fdbd 3bab 79bd b671 163b 9f8a 853d
000002e0: 67df 213d 0bdb e2bd 3ee5 923d ce39 0e3d
000002f0: 824d 923d ea1a 2b3e 1570 883d 5df1 b23d
00000300: 308d 923d 5909 05be 484a 0abd 42f1 8abd
00000310: 5424 ba3d 6481 d0bd 2824 20bd a88a 96bd
00000320: 344b d13d 9d17 c8bd cf53 50bd 8cdf 5b3b
00000330: f338 f0bc c14d 18be 60fa b5bc 1d24 c1bc
00000340: 7dee 5bbc 5bdc 00bd b5ee b83d b64f 35bd
00000350: 1105 913d eb3d adbb 4add 0dbd 980d 093d
00000360: 8cc7 cabc 53a0 cabc 686c 3fbb d0cc db3c
00000370: eee1 a7bd dd1c 1cbb c36b 41bd 06c6 14bd
00000380: d4b9 bbbc ffd1 673c 6ac6 21bd da55 99bd
00000390: 45f0 c4bd 5d6e cfbd f092 f03c f631 11bd
000003a0: d69b 633d ae86 ca3c fe72 913d 6080 873c
000003b0: 4ff3 08bd 0e29 293d b295 df3d d909 b63d
000003c0: 65bd 923c 2ca2 e73d 2315 fb3d 2846 98bd
000003d0: 2d9d 973d c830 13bc 41c9 063e f9c4 053e
000003e0: 31a7 9dbc c310 08be 4f04 623d 2e72 e7bc
000003f0: 3294 8dbd 429d 73bd ddc1 14bd 2e62 183e
0.010883783 -0.07852549 -0.057139996 0.029894732 -0.07587731 -0.07271467 0.03651488 0.037909277
0.07732803 0.03218784 -0.02814721 0.030878834 -0.042272087 0.0028574 -0.058206018 0.085983105
0.009149708 -0.00324352 -0.039405134 -0.007191438 0.062256787 -0.054603063 -0.016909482 0.04851282
0.09228259 -0.11469304 -0.08110967 -0.1638593 -0.1804683 -0.08595255 -0.12573925 0.0755599
0.064469144 -0.029414242 0.10827748 -0.011749645 0.05793351 0.12154132 0.064853795 0.13304397
0.08908077 0.04223677 0.1120986 0.16240582 0.014425596 0.09562663 -0.018139333 0.14128284
0.11288304 0.037132706 -0.078647606 0.05353758 -0.07679749 -0.030220706 -0.017050346 0.012875236
0.09558689 -0.01797914 0.04763535 -0.0711436 0.0024127846 0.046404216 -0.04151829 0.018575342
0.003610632 0.0031086977 0.043944176 0.14923343 0.08484482 0.07373495 0.15251334 -0.04318914
-0.038427085 0.07553225 -0.06662345 0.019104958 0.056523483 0.01015973 0.05827651 0.0290937
-0.069942944 -0.05236121 -0.037962418 -0.06494886 -0.094051786 -0.01152979 0.10674088 -0.08490232
-0.045040227 -0.04292415 -0.02632817 0.08234273 0.026910301 -0.1574335 0.024785815 0.05109743
-0.120163165 0.079943344 -0.0321978 0.07173011 -0.07099139 0.046790462 0.053080674 -0.10614431
0.055193186 -0.07272695 -0.012326548 0.038699105 0.036112946 0.07039577 -0.07973131 0.07457299
0.11492609 -0.060580235 0.13834509 0.1274587 0.11049183 -0.010070522 -0.08441835 0.08574066
-0.009982799 -0.09731042 0.06112316 -0.025134236 0.071292564 0.03235414 0.028413929 -0.027782505
0.0007148318 0.10049908 0.052176625 -0.01624913 0.01881972 0.06950501 -0.09044165 0.025875187
-0.11339756 -0.01521674 0.034099318 0.07247009 -0.027621109 0.050910402 0.13149413 -0.024520991
-0.08610799 -0.06978975 -0.072548985 0.0026527944 0.10066217 0.13474247 0.06938671 0.11133181
-0.012137396 0.14696029 0.027924247 -0.15961052 0.018514412 -0.12821276 0.11082259 0.017108226
0.07757768 -0.18352214 0.09380586 0.1826208 0.06583482 0.00840797 0.13117303 0.23281346
-0.0816085 0.048031177 -0.07618543 -0.1454797 0.032402433 -0.1089318 0.1450701 -0.013689233
-0.036139976 -0.118938655 0.06811966 -0.030973902 -0.123924896 -0.060954314 0.002295596 0.065205805
0.039519694 -0.110769354 0.07172631 0.034723096 0.0714369 0.16709486 0.06662003 0.08737443
0.07155836 -0.12991847 -0.033762246 -0.067842975 0.0908896 -0.10180929 -0.03909698 -0.07350665
0.10219422 -0.09770129 -0.050861176 0.0033549992 -0.02932403 -0.14873411 -0.022214115 -0.02357679
-0.013423559 -0.031460147 0.09029905 -0.04426547 0.070810445 -0.005286922 -0.034634866 0.03346023
-0.024753354 -0.024734652 -0.0029208902 0.02683106 -0.081973895 -0.0023820915 -0.04722191 -0.036321662
-0.022915758 0.014149188 -0.039495863 -0.07487078 -0.0961614 -0.10128472 0.02936694 -0.035448037
0.05556854 0.024722423 0.07102011 0.016540706 -0.033435162 0.04129892 0.10917224 0.08888597
0.017912576 0.11310229 0.12259891 -0.07435256 0.07403026 -0.008983798 0.1316271 0.1306342
-0.019244762 -0.13287644 0.05517989 -0.028252687 -0.06913032 -0.059476145 -0.036317695 0.14881203

encoder1.4.bias f4 [16]
00000000: db07 1abd 3b65 97bc 1ad1 d8bc 786b dcbc
00000010: 82d3 7e3d a5e5 573a 504e 51bb 3602 6abe
00000020: 9b7f 91bd 40d2 33bd ef67 6d3e 696d 0b3d
00000030: 9d62 b53c 3f71 a63d 53ad 33bd 5db8 833d
-0.037605148 -0.018480888 -0.026466895 -0.026906714 0.06221343 0.0008235819 -0.0031937547 -0.22852406
-0.07104417 -0.043901682 0.23184179 0.03403989 0.022141749 0.08127069 -0.043866467 0.06431649

encoder2.0.weight f4 [32, 16, 3, 3]
00000000: 879f 14be 0be5 c53d 21fc 3bbc bb46 e5be
00000010: ae4a b13c fc06 003e 6db3 973c ced6 7e3e
00000020: e24e 23bd 8a7e 233e 40b6 92bd daf6 92bc
00000030: 3fd2 64be e2f4 3bbd 4502 5b3c 6a66 153e
00000040: 04ef 3d3e fe56 14bd 3f8b 953d 6cbe f2bc
00000050: a07c ddbc be88 713d 671e 933d 9cf3 ab3c
00000060: 2aba 4a3d d7e1 97bd bac2 603d af71 9dbe
00000070: d3af 1dbe 9437 8d3d cf2d 873e 2ed9 c43d
00000080: c697 b7ba 0bd6 e6be caf0 9bbd 2b5a 073d
00000090: daef bc3e 0d10 d93d ae03 0bbc 8dee 1abd
000000a0: fe73 e0bd 72f4 bc3b 0c84 3abe 84fa 5b3d
000000b0: cce5 223b c1b7 1fbe 414f 3cbd ea25 bc3d
000000c0: 6cd7 0fbe 3756 c03e 32c9 eabd 23b3 7a3e
000000d0: 1a60 d93c 7175 483c e1b9 703f 28ab 903e
000000e0: ab12 f8bd 10ff 243d 3cf6 603e 44be a63e
000000f0: d98a 3abf f56d 30bd 2e65 c8bd 73e2 703e
00000100: 5736 cbbc 8752 fbbe ec3d 30bd 509c 19be
00000110: 7732 bbbe d098 1c3e 1b10 2bbe cfcb 20bf
00000120: 0038 2239 b652 babc 6ccd 99bc c698 0f3d
00000130: 9a54 583d 7638 55bd 232a 72bd f0bd acbb
00000140: d803 373c a888 813d 078d 69bd eb6a 50bd
00000150: fefc f3bd 37e0 ebbd 1b10 043e 5956 dbbd
00000160: f01e d7bc a41f 94bd 3541 b5bd 6096 0d3e
00000170: bd8d f43c 20b3 9c3e 821c d73d 0ecb 01bd
00000180: b898 4fbd 4f84 d23d 8000 ffbc eaba a93d
00000190: b4ae 8b3d 1d31 05bd f6c2 a93e 223f 6bbd
000001a0: 1df0 83bc f468 18bd 5e93 35be c67b d23d
000001b0: e3ad 7b3e 9e97 903e 5b25 2fbd 774f 08bf
000001c0: 5d26 2a3e 72ba 4b3d 9036 97be ee7d 5c3c
000001d0: 78a2 c93c 592a 6bbd 4539 8d3c 3e54 3ebd
000001e0: 89f9 ecbe 0a44 1b3e ff73 86bc aba3 dbbe
000001f0: 8999 f23c 59fd cdbc 44e7 a63d 09ae 233d
00000200: bb4d 0c3d 0a1e b3be 0f4e 753e f49c d2bc
00000210: 2553 6fbe 5087 05b9 4db8 1c3c 01b3 6a3d
00000220: c811 e63d 07fd 0b3d edac 6dbe 38d4 3fbb
00000230: a805 efbc 388e f1be d998 c5bd a188 b33d
00000240: 5171 00bd 2d70 72bd 844b 4d3d 34f8 4bbd
00000250: 3325 a4bd c1d4 8abd 92b7 8bbb 0be1 bdbc
00000260: 941b f8bc 48b0 4dbd 9953 ff3c 0b63 543c
00000270: 582c c2bc b157 c9bd 0d18 d4bd da9b e63b
00000280: ff4b 3a3d f301 2cbb 830a 1ebd 48ec 7dbd
00000290: 20c8 f23c 6013 133b b83d 163d 0eca 61bd
000002a0: 0dd8 a63d cb20 49bd 0841 82bd a65b 4ebd
000002b0: 9a3f a03c 5ced d4bd 013e 49bd b6c4 d7bd
000002c0: 4bd7 3b3c 685f 8c3d a011 04bd 0489 fd3c
000002d0: 7cd0 3fbc 563a 123c 9aed 7f3d df45 633d
000002e0: 193d a4bd 65a1 693c 5da7 faba c0dd d33c
000002f0: d545 8f3b 74dd 46bd 6350 d73c 3eb8 35bd
00000300: 8d01 863d 2d27 42bd 3dd0 18bb ba90 bf3c
00000310: e07e 453d 381d 4fbd a030 023c f252 4e3d
00000320: b095 453d 6121 a53d 0c8b 32bd 2244 943d
00000330: 7cf5 a9bd 1cd6 e73c 9512 2cbd a6e0 ecbc
00000340: 3b0d 503c 7d4a bdbc 9c7c 6b3d 12ea 1d3b
00000350: d78a 4fbd 7363 8fbd 8b9b d6ba a8c9 61bd
00000360: 8024 4b3a 333d 6dbd bcdb 963c 70e3 c33c
00000370: b295 83bd fbb6 8a3d 40a6 cabc bc24 90bc
00000380: 1240 113d e50e 2d3d 4438 d4bd 719d 34bd
00000390: 4997 61bc 71d1 fa3c 205b 56bd e278 aa3c
000003a0: c4d8 0e3c 5997 e2bd 863a b2bd 65ae 3839
000003b0: 77c5 9fbd 3652 97bb c036 cfbc 5266 ab3c
000003c0: 3615 c0bc 4398 d9bd 5886 8abc c502 a0bc
000003d0: 4cd9 313d c6a0 c0bd 6397 853d 8484 eebd
000003e0: 0cd4 a6bd 2af3 4b3d d861 073c 6d00 a5bd
000003f0: 5a19 ccbc 6ee4 dd3b 853f 273d 0a59 6dbc
-0.1451398 0.09662827 -0.011473686 -0.44780526 0.021642055 0.12502664 0.018518174 0.24886629
-0.03987015 0.1596624 -0.07163668 -0.017939974 -0.22345828 -0.045887835 0.01336724 0.14589849
0.18548208 -0.036215775 0.0730195 -0.029631816 -0.027036965 0.058968298 0.07183533 0.020990185
0.049493946 -0.074161224 0.054873206 -0.30750796 -0.15399103 0.06895366 0.26402137 0.09611736
-0.0014007024 -0.45085177 -0.07614286 0.033044975 0.36901742 0.105987646 -0.008484764 -0.037825156
-0.10959624 0.005766445 -0.18214434 0.053705707 0.0024856208 -0.1559744 -0.04597402 0.09186919
-0.1404702 0.37565777 -0.11464156 0.24482398 0.026535083 0.012235031 0.9403363 0.28255582
-0.12112936 0.04028231 0.21968931 0.32567036 -0.72868115 -0.043073613 -0.097849235 0.23523884
-0.024806185 -0.490864 -0.043027803 -0.15001035 -0.3656194 0.15292668 -0.16705362 -0.6281099
0.00015470386 -0.022744518 -0.01877471 0.035057805 0.052815057 -0.0520558 -0.059122216 -0.0052716658
0.01117035 0.06324893 -0.05701926 -0.050883215 -0.11913489 -0.11517375 0.12896769 -0.10709829
-0.02625987 -0.072325975 -0.08850328 0.13826895 0.029852742 0.30605412 0.10503484 -0.03168779
-0.050682753 0.10279142 -0.031128168 0.08287604 0.06820431 -0.03251754 0.33156556 -0.057433255
-0.016105706 -0.037209466 -0.17731997 0.10277514 0.24578051 0.28240675 -0.042760234 -0.53246254
0.16616197 0.049738355 -0.29533815 0.013457758 0.024613604 -0.057413433 0.017239222 -0.04646706
-0.4628413 0.15162674 -0.016412733 -0.42898306 0.029614227 -0.02514522 0.08149579 0.039960895
0.034253817 -0.34983855 0.23955558 -0.025709607 -0.23371561 -0.00012734276 0.009565425 0.057299618
0.1123386 0.034176853 -0.23210497 -0.002927078 -0.029177502 -0.47178817 -0.09648294 0.08766294
-0.031358067 -0.05918901 0.050120845 -0.04979725 -0.08014908 -0.06778861 -0.0042638266 -0.023178598
-0.030286588 -0.050216943 0.031167792 0.012963067 -0.023702785 -0.09831179 -0.1035615 0.007037622
0.04548263 -0.002624628 -0.038584244 -0.061992913 0.029636443 0.0022441968 0.036679953 -0.055124335
0.08146677 -0.04910354 -0.0636006 -0.05038037 0.019561578 -0.10396835 -0.049131397 -0.105355665
0.011464904 0.06854135 -0.03224337 0.030949123 -0.011707421 0.008925041 0.062482454 0.055486556
-0.08019466 0.014259671 -0.0019123364 0.025862575 0.0043723383 -0.048551038 0.026283449 -0.04436516
0.065432645 -0.047400642 -0.002331748 0.02338444 0.0482167 -0.050564975 0.007946163 0.05037207
0.048238456 0.08063007 -0.043589637 0.07239558 -0.082987756 0.028300337 -0.04200991 -0.028915714
0.012698467 -0.023106808 0.057491884 0.0024095816 -0.050669517 -0.0700139 -0.001637326 -0.055123955
0.00077492744 -0.057919692 0.018415324 0.023912162 -0.064250365 0.06773182 -0.024737477 -0.017595641
0.035461493 0.042250533 -0.10362294 -0.04409546 -0.013768979 0.030617448 -0.052332997 0.020809595
0.008718673 -0.110640235 -0.08702569 0.00017612574 -0.07801335 -0.0046179546 -0.025294662 0.020922814
-0.023447614 -0.10624745 -0.016909763 -0.01953257 0.04342012 -0.09405665 0.06523015 -0.11646369
-0.081459135 0.049792446 0.008263074 -0.08056722 -0.024914432 0.0067716157 0.04083206 -0.014486561

encoder2.0.bias f4 [32]
00000000: b11c d83d 241d bdbd 2b24 333e f98b 87bd
00000010: fcc3 643d 35cc b53c 2732 dd3d 4497 0c3e
00000020: d621 413d fd9e a33c 7210 123e aae8 d23c
00000030: d1d1 6fbc a800 b63d 20d9 fabc b9c2 15bd
00000040: ce9a da3c c14c 343e 8508 be3d ae7f 0c3d
00000050: 8e2e 023c 5184 1abd 7439 f73d 880d 8c3a
00000060: 1fba 0c3c bbca 99bd cac3 90bd b2ea 39bd
00000070: 5f1f 463e 02a3 093e ccc8 8bbc 7857 debc
0.105523475 -0.09234074 0.17494266 -0.066184945 0.055850968 0.0221921 0.108005814 0.13729578
0.04715141 0.019973272 0.14264086 0.025745708 -0.0146374265 0.08886844 -0.030621111 -0.036562655
0.026685145 0.17607404 0.09278969 0.034301452 0.00794567 -0.037723843 0.12071505 0.0010685185
0.008589297 -0.07509371 -0.07068594 -0.04538984 0.19347905 0.13441089 -0.01706352 -0.027141318

encoder2.2.weight f4 [32, 32, 3, 3]
00000000: cf68 b3bc e0ba d33c 9bcc d13d 5704 003d
00000010: 07c4 353d b0d8 39be 2851 17bd d73a 363d
00000020: 032d 32bc 060f 1e3d c0f4 b7bc 794d bb3c
00000030: 0ecb 71bd 4ed5 94bc 59a2 303d 0e88 07bc
00000040: bd87 68bd fedc a83c a503 2a3d ce97 bdbb
00000050: 638b b6bc baf2 22bd 6820 f8ba 3f35 1d3d
00000060: 7661 c5bd 5391 f23a 1c27 6fbd 2ff6 473d
00000070: d6c3 ae3d 8f14 9f3d d138 553d 5829 d63d
00000080: b0f9 e63d 604b fcbc 290c c93d 578e a33d
00000090: 3a80 aabd 22dc 97bc cb61 28bd 8144 893d
000000a0: 31db 253d 1ea7 b1bd 876a 6c3d 4924 37bd
000000b0: 588a cbbd d14b 0f3e 9ab9 8b3d 4825 6ebd
000000c0: 7c5c 063e 7a1e 4b3d bf8a 173d a72c c73a
000000d0: ec94 85bd f5e6 33bc 02fe e0bc 902d 1cbd
000000e0: 1557 a0bb 1141 edba abc8 9abd 0a09 9a3c
000000f0: 08a7 3c3d d961 afbc 32c0 193a 337b 20bc
00000100: bdb3 1f3d 9294 b3bd 0c2d 513d 5a48 da3d
00000110: d71d cb3d deed 59bc 387c 393d 700c 96bd
00000120: 1c94 b7bc 91e9 8e3b 5c5d 2b3d dbc4 35bd
00000130: eefd 53be 65e1 15bd aee0 0b3e 1662 44bd
00000140: 7188 223d 51db 653d 5e54 f6bc b2e3 b5bd
00000150: db1e 97bd 9a14 743d a521 8bbc 0de9 973c
00000160: e5e5 cd3d 47ea cdbb c916 df3c 3272 53bd
00000170: 7ad9 83bd 6973 883d 6bfc ce3c f2cf 743d
00000180: e100 ae3d 61dc 8f3c f090 38bd 451e 83bd
00000190: 3a02 99bd b77c 3cbd 772b 853a 6461 543d
000001a0: 376f 643d daf1 a3bd 229e 9d3d 03d8 223d
000001b0: 39fe 03bd a362 efbd f73a 5fbd f56f 903b
000001c0: ab6a ca3d c071 f03a a0ba 703d c7ca e43d
000001d0: fe3d 4ebd 4dfa 453d 1964 133d 9580 0b3d
000001e0: 6e2a cf3c 3d3a e43c 3374 7d3d a59e d03c
000001f0: 3ca9 cdbd d9df 243c c0d5 0d3d 0ea1 8cbb
00000200: d46c 01bd e901 093d 8bc2 b9bb 5733 edbc
00000210: cf39 39bd d47a 363c e5bd c93b eaa3 d1ba
00000220: e718 243d f562 ca3d 51f1 a6bd 2450 873d
00000230: c785 1c3d 178d e2bd 8381 3dbd 184a 04bd
00000240: 06d4 973d 67a2 4d3d 7e25 5ebd 21c6 d53d
00000250: bc3c e43d 6541 c5bc 2abd a4bd f07f 77bd
00000260: bf98 9abd a41f f03c 1ab4 08bd 5f16 323d
00000270: 5a61 a03d 079b 60be dce9 cebb 3f7a 13bd
00000280: 6561 123d 6605 973d dd88 133e 2276 683d
00000290: 98d3 a3bd 50d4 093e 96b5 263d d9f2 2fbd
000002a0: 92bc 1e3d 029d af3b 67c7 cc3c 4bf4 6b3d
000002b0: ea48 623d 705d d6bd 553c 233d 78f8 7b3c
000002c0: c1c2 9dba d6bb 2fbd ffd3 87bc a6f2 7cbb
000002d0: 3f91 b8bc 444d 37bd 90e8 75bc 3fd1 0abd
000002e0: 77c3 923c b6e4 0abd 16a0 a03d 400c d3bb
000002f0: 1ab7 dc3c dbda ddbc e68f 8bbc 0fb2 24bc
00000300: 0b87 633c 80f3 a0bd 3925 8dbc 78a2 353e
00000310: 693b 123e 949e 2c3d 2b98 143d 6f0b 83bc
00000320: 77ab 3f3c efa2 cdbd 073b d3bd abdd 183c
00000330: 3a58 5a3c 177d 1c3e 721a e8bc 2423 04be
00000340: 952a bebc 1f0a 33bf 6928 343d 4b2b 243e
00000350: 5d7e 923d 994e 48bd 301b 893d 6e4f 853d
00000360: 63fc e43c c82e 3c3d 6ee5 6a3d fe39 b93b
00000370: 0add 1dbd c5d0 a8bb 1811 bcbd 2d68 5bbd
00000380: 4d38 89bd 4746 323b 2d0a f5bc ab54 36bd
00000390: 5d3d 5b3d b18f 4fbc 6070 32bc 6d4e 093d
000003a0: 0ccf a1bc 1167 d6bc 0f85 3cbb aeaa 04bc
000003b0: eeb5 8ebc c346 a93d c835 d0bc 3532 313c
000003c0: e5dc 86bd 0195 d63c a4e4 ccbc c1cb e2bd
000003d0: 9066 823c 1acd 843d 6c06 5a3c 6daa ae3d
000003e0: 2c24 23bb 6a12 2abc aa7e 163d b2b2 cfbd
000003f0: d3f2 813b b40e 653d 4cf1 dfbc 13d8 3cbd
-0.021900563 0.025845945 0.102441035 0.03125414 0.0443764 -0.18149066 -0.03694263 0.044489708
-0.010874989 0.038588546 -0.022455573 0.02286409 -0.05903154 -0.018168118 0.043123577 -0.008272184
-0.056770075 0.02061319 0.041507382 -0.005785919 -0.022283262 -0.039782263 -0.0018930556 0.038380858
-0.0963773 0.0018506445 -0.058386907 0.048818763 0.085334465 0.07767593 0.052056137 0.104571044
0.11278093 -0.03079766 0.098167725 0.079861335 -0.083252385 -0.018537585 -0.041108888 0.06702519
0.04049224 -0.08674453 0.05771878 -0.04471234 -0.09938496 0.13993765 0.0682251 -0.058141023
0.13121217 0.04958961 0.036997553 0.0015195803 -0.06522545 -0.010980357 -0.02746487 -0.03812939
-0.0048931935 -0.0018101056 -0.07557806 0.018803138 0.04605773 -0.021408962 0.0005865126 -0.009794998
0.03898977 -0.08768572 0.05106835 0.10658331 0.09917801 -0.013301341 0.04528448 -0.07326591
-0.022409491 0.0043613394 0.04183708 -0.04437719 -0.20702335 -0.036591906 0.13659927 -0.047945105
0.039680902 0.05611736 -0.030069526 -0.0888132 -0.07378932 0.05958996 -0.016983816 0.018543744
0.100536145 -0.0062840316 0.027232544 -0.051622577 -0.06437965 0.06662638 0.025266847 0.059768625
0.084962614 0.01756114 -0.0450601 -0.06402258 -0.07471128 -0.046017375 0.0010160048 0.05185069
0.055770125 -0.08005114 0.07696177 0.039756786 -0.032224867 -0.11688735 -0.054499593 0.0044078776
0.098836266 0.0018344447 0.05877173 0.11171489 -0.05035209 0.04833441 0.035984132 0.034058172
0.025288787 0.027859801 0.061878394 0.025466273 -0.100420445 0.010063135 0.034627676 -0.00429166
-0.031597927 0.033449087 -0.0056689433 -0.028955145 -0.045221146 0.011137683 0.0061566704 -0.0015994285
0.04006281 0.09882156 -0.08151496 0.066070825 0.038213518 -0.11062067 -0.04626609 -0.032297224
0.07413487 0.050203707 -0.054234974 0.10438181 0.11144397 -0.024079034 -0.08043893 -0.060424745
-0.07548665 0.029311962 -0.033374883 0.043478366 0.07831068 -0.21934138 -0.0063144993 -0.036005255
0.035737414 0.073740765 0.14407678 0.056753285 -0.07999343 0.13459897 0.040700518 -0.042956207
0.038754053 0.005359293 0.024997426 0.057606023 0.055245318 -0.104670405 0.03985246 0.015379064
-0.0012036191 -0.042903744 -0.01658058 -0.0038596778 -0.022530196 -0.04475142 -0.0150090605 -0.03389096
0.01791547 -0.033909522 0.07843034 -0.0064406693 0.026942778 -0.027081897 -0.01703639 -0.010052218
0.013887177 -0.07858944 -0.017229663 0.17737758 0.14280476 0.04214342 0.03627793 -0.015996663
0.011698595 -0.10040843 -0.10313993 0.0093301935 0.013326699 0.15282093 -0.028332923 -0.1290403
-0.023213664 -0.6993732 0.04398385 0.1603214 0.07153008 -0.04890308 0.06694639 0.06509291
0.027952379 0.04594305 0.057347707 0.005652665 -0.038540877 -0.0051518404 -0.09182948 -0.053566147
-0.06700192 0.0027202533 -0.029912079 -0.04451434 0.053525317 -0.012668536 -0.01089105 0.03352206
-0.019752048 -0.026172193 -0.0028765833 -0.008097334 -0.017420735 0.0826545 -0.02541627 0.010815193
-0.06585101 0.026194097 -0.025011368 -0.11074019 0.015918046 0.064844325 0.013307195 0.085286
-0.0024893386 -0.010380367 0.03674189 -0.10141505 0.0039657145 0.055922225 -0.027336739 -0.046104502

encoder2.2.bias f4 [32]
00000000: 98a2 f1bd 9465 923d a5e4 cebd f769 5dbd
00000010: e393 49bf 627d 6cbd eee7 d4bd 3808 8a3d
00000020: 6163 083d b69d 8e3d 4d8b 86bd b657 0d3d
00000030: 3adb dc3b 7d98 30bd 48a8 253d 0491 7fbd
00000040: cca0 a2bd e8c2 b0bc 90e2 843d eb72 e33c
00000050: 0bc2 a5bd 5678 8bbd e708 3fbd cb6c 233e
00000060: 80a5 1abd e481 7cbd 6b32 223e 33d3 863d
00000070: f111 dd3d f628 853d 7755 d2bc 1523 253d
-0.117985904 0.07148281 -0.10102204 -0.054056134 -0.7874128 -0.057736762 -0.103957996 0.06739849
0.0332979 0.06963675 -0.06569538 0.034507476 0.006740001 -0.043114174 0.04044369 -0.062394157
-0.07940826 -0.021577314 0.06488526 0.027764758 -0.080936514 -0.06810062 -0.04663935 0.1595947
-0.03775549 -0.06164731 0.15839545 0.06583252 0.10794438 0.06501953 -0.025675518 0.04031666

encoder3.0.weight f4 [64, 32, 3, 3]
00000000: 49d2 42bd d5eb 623a 35b4 c2bd aa8a f8bc
00000010: 3430 ef3b 7e5b aaba 2840 263c 92e0 543d
00000020: 32a2 9c3c ad8c d0bd ab30 973d 54c5 0b3d
00000030: 3143 0fbd b61d 033e 1f0d aabd 55c6 70bd
00000040: a567 823d bbea 383c 59f9 03bd 773e 09be
00000050: 0c8a 94be 5904 c43d 201a a0be 7e07 4c3e
00000060: cde3 b23d b285 273c fe21 763e 7039 8c3e
00000070: 3186 c7bc b149 52be d7bc e4bd 884e b5bc
00000080: cebc 833d 066b 20be 4c59 9dbb 1e5d 9dbe
00000090: bf01 07bf 4fa3 8ebe 8bfa eebe aa0f 7b3d
000000a0: ed75 6abe e40d 993e bf7e 23be a8f5 a8bd
000000b0: 3833 bc3e 9f17 dfbe 74b5 2abe 0cb3 763e
000000c0: 0329 3abe 45ab 033e ebbb 8c3e a377 c9bd
000000d0: 1b49 fd3d 6ee8 a83c f565 2b3e 0e68 cf3d
000000e0: 5f71 d1bd 606b b33d f44b 32be 29ad 03be
000000f0: d7c1 9c3d 1632 2bbc b6e3 c0bb 16de 62bd
00000100: 361b 57bd c796 0cbe 9ceb 06be 56c5 53bb
00000110: f699 6cbe cf67 ae3d 0a54 963d 3532 313e
00000120: 021e a73c a672 d93c d46e 9ebd 70d3 743d
00000130: 8094 9dbd 0975 153e 4437 af3c 7465 053c
00000140: a971 eebd 9bd7 00be 5832 733e 48c1 833e
00000150: 4b95 56be 025c dc3d b8d2 6d3d a60a 0abe
00000160: f4c6 01be 364e 83bc 5fe1 87bc 4a89 8f3c
00000170: bc06 103c fe1c 23bc 24dd b43c 8781 52bd
00000180: 2f2b 223d f89a 15bd 1a0e 703d fe7c b23d
00000190: 5f63 233e b210 fa3d 6003 fcbc d4ba f4bc
000001a0: fd14 a5be 0515 bbbe 6645 8b3e 0abd 793c
000001b0: 8f17 92be 1b6d 87bd 98b6 a3bd 8e39 51bd
000001c0: 2719 40bd a13f 713e c2d2 dfbc c121 7b3c
000001d0: b47e 3e3d 644e ecbd 6a51 29bd d2ba 24be
000001e0: b61e a4bd 71b3 933d d991 663c 1756 f6bd
000001f0: d4de abbd 5e05 96be f10a b8bc 2672 ba3d
00000200: 8d90 273e 345a f93b c09b a93d ea8a 8a3d
00000210: ebf1 39be df53 25be cfbb 21bd 0c90 80bc
00000220: b663 81bd 7a9a abbc 73bd 34bd d776 fb3c
00000230: fed6 47bc 6c59 bfbc 6134 0cbb e083 c4bc
00000240: 4d5d cdbd 2823 fe3d f6ca 1e3e 9510 69bd
00000250: ce4b 393e bb2a 5f3d 6421 1dbd 6ee6 febc
00000260: 7ef5 1bbe 89f9 ccbd 3ff8 b7bb fb41 5abe
00000270: f815 27bd c3b7 a2bd 0157 3e3e a736 e93d
00000280: 6760 3bbd 9ad7 bdbb 50aa 923c 7f7b e43d
00000290: b95c 33bd 675e 2ebb c16a 24bd fd94 01be
000002a0: 20d0 303e 3eda 6f3e 5e2a 603e 7f1b 10bd
000002b0: 6933 3abd 8c39 033d 803b b0bc 5971 223d
000002c0: 6360 2c3e b05e f1bd 6215 a63b 001d 86bd
000002d0: 75c9 46bb a0a8 083e 2b67 933c eb06 92be
000002e0: 493a a1be dd0e 94be 4bf7 453e c2da bd3e
000002f0: 6ac3 ff3c 8eff a4bb 6ba0 b23d 411e ac3c
00000300: ac39 3b3d d9c8 3dbc 0435 c93c 7e5f cebc
00000310: a32f df3b 52e0 42bc e837 3dbd cb99 133d
00000320: 7b59 1dbd 91f5 4d3d 2658 04bd b949 3fbd
00000330: 6d93 403d 3a33 373d 5c9e 3abd 60d8 9bbb
00000340: 3367 c6bd c3a2 1bbe ae3b 043d 26e4 e03c
00000350: 83c9 053d 3ec9 a13d 50b6 083d 2e5d bd3d
00000360: feda 9dba 07e5 e7bc 56f8 c73a c434 14bd
00000370: f26e e83b e1b9 af3c 258b 283d edb3 09bd
00000380: 0f06 33bd 0002 15bc d0a6 30bd 3231 1dbd
00000390: 64bb 9abc 20cd 6cbd 09ad 263c 24a0 493b
000003a0: fe8d 1c3d f90c 9ebc 68f3 a63b 0454 d8bc
000003b0: e104 123e 2275 b03d ebba 52bd a848 153e
000003c0: 80a0 c63d 4d86 17be cf2c 6fbe 91f6 b23c
000003d0: 97e2 50be 906a 52be d5d1 943d 50ad 9ebd
000003e0: 7334 67bd d0a8 a93d 2870 383d c679 2a3d
000003f0: 2bec 68bc 52dc 70bd 458f cebe 6ed9 a4ba
-0.047563825 0.00086563575 -0.09507028 -0.030339558 0.0072994474 -0.0012997237 0.010147132 0.05197198
0.01912031 -0.10183082 0.073823296 0.034123734 -0.034976188 0.12804303 -0.08303284 -0.058782894
0.06367425 0.011286433 -0.03222022 -0.13402735 -0.2901157 0.09571142 -0.31269932 0.19924733
0.08734856 0.010224747 0.24036404 0.2738757 -0.02435598 -0.20535924 -0.11168831 -0.022132173
0.06432496 -0.15665826 -0.004801905 -0.30735105 -0.5273704 -0.2785897 -0.46675524 0.061294235
-0.22896548 0.2989341 -0.15966319 -0.0824998 0.36757827 -0.4357271 -0.16670781 0.24091738
-0.18179707 0.12858303 0.2748712 -0.09837272 0.123674594 0.020618644 0.16738112 0.10127269
-0.10226702 0.087607145 -0.17411786 -0.12859024 0.076541595 -0.010448953 -0.0058865203 -0.05538758
-0.052516185 -0.13729392 -0.13175815 -0.0032313666 -0.23105606 0.08515894 0.07340248 0.17304309
0.020400051 0.026543926 -0.077359825 0.059771955 -0.0769434 0.14595427 0.021388657 0.008141864
-0.11642773 -0.12582247 0.23749673 0.257334 -0.20955388 0.107597366 0.058062285 -0.13480625
-0.12673551 -0.016028505 -0.016586957 0.01752152 0.008790668 -0.009955643 0.022078104 -0.05139306
0.039591964 -0.036524743 0.0586072 0.087152466 0.15955876 0.12210216 -0.030763328 -0.029874243
-0.32242575 -0.36539474 0.27201384 0.015242824 -0.285336 -0.06612607 -0.07993811 -0.05108028
-0.046898987 0.23559429 -0.027322177 0.015327872 0.046507552 -0.11538389 -0.041337408 -0.16086891
-0.0801367 0.0721196 0.014072859 -0.12028139 -0.083921105 -0.2930097 -0.022466155 0.09103803
0.16363735 0.00760963 0.0828166 0.06764777 -0.1815869 -0.16145276 -0.03948575 -0.015693687
-0.063178465 -0.020947684 -0.044125985 0.030696316 -0.012197254 -0.02335807 -0.0021393525 -0.023988664
-0.10027561 0.12409049 0.15507111 -0.05690058 0.18095323 0.05448411 -0.038361922 -0.031115737
-0.15230367 -0.100085326 -0.00561431 -0.21314232 -0.040792435 -0.07945206 0.18587877 0.11387377
-0.045746233 -0.005793524 0.017903477 0.111563675 -0.0437896 -0.002660656 -0.04014087 -0.12654491
0.17266893 0.23423097 0.21891162 -0.035182472 -0.045459185 0.032037303 -0.021512747 0.039658878
0.16833644 -0.11785638 0.005068467 -0.065485 -0.003033248 0.13345575 0.01799353 -0.28520903
-0.3148978 -0.2891759 0.19332616 0.3708096 0.03122111 -0.0050353473 0.087220035 0.02101052
0.045709297 -0.01158353 0.024561413 -0.025192019 0.0068110987 -0.011894302 -0.046195894 0.03603534
-0.038415413 0.05028302 -0.032310627 -0.046701167 0.047015596 0.044726588 -0.04556118 -0.0047560185
-0.096876524 -0.15198807 0.032283477 0.02745254 0.03266288 0.07899712 0.03337699 0.09246288
-0.0012043414 -0.028307451 0.0015256505 -0.036183134 0.007093304 0.021450939 0.041148324 -0.033618856
-0.04370695 -0.009094715 -0.043127835 -0.038376994 -0.018888183 -0.05781281 0.010173091 0.0030765617
0.03822135 -0.019293295 0.0050949343 -0.02640725 0.14259674 0.08616091 -0.05144779 0.14578497
0.09698582 -0.14797325 -0.23356937 0.021846088 -0.20398937 -0.20548463 0.07266585 -0.077479005
-0.056446504 0.082841516 0.045028836 0.04162004 -0.014216463 -0.058803864 -0.4034368 -0.0012577006

encoder3.0.bias f4 [64]
00000000: d9ea 9cbc a50e c3bd e51c a5be 3165 bfbd
00000010: 4f72 533c d44b d93c 8771 0ebe 8a23 cc3c
00000020: bb11 413c 4e9c 8abd 989c 73bc 130b deb9
00000030: 3028 2fbc b541 d13d 1682 67bd 0cea d0be
00000040: 8552 a33d 675a a13b ceaa 8c3d 5e1f f23c
00000050: e8ab b3bd f1ac 833d 650d bc3b 4ccc 2abe
00000060: 2918 b8bd 6999 1b3c ea64 9c3c 7035 76bc
00000070: 315e 94bd c966 bbbc d15c 133d 879b 9f3c
00000080: d02a 80bd d36d e6bd fff7 903d 8b7e a83c
00000090: b5f1 e8bd 9022 cabd 473b 6abd fab7 2a3d
000000a0: 8ce5 083d 0573 e3bc 08db 1abb d4cd 993c
000000b0: 6631 723d f710 e53c 560a 483d 8e81 ad3d
000000c0: 5827 f8be f8fc d23d 6ff0 bd3b b775 183d
000000d0: fc06 f6bb ba0d 5e3c 0ce9 d0be ce71 0d3c
000000e0: abbc a7be c8df 3e3d fa0b d6bc 3a7c a6bd
000000f0: d666 6d3c 01d9 f5bd e687 8d3b a4d6 743d
-0.019154953 -0.095242776 -0.32248607 -0.093454726 0.012905671 0.026525415 -0.13910495 0.02491929
0.011784012 -0.06768094 -0.014868878 -0.0004235139 -0.010690734 0.10217611 -0.056520544 -0.40803564
0.07974724 0.004924107 0.06868516 0.029555973 -0.08773023 0.0642947 0.0057389014 -0.16679496
-0.08988983 0.009497025 0.019091088 -0.015027389 -0.07244528 -0.02287616 0.03597719 0.01948334
-0.06258166 -0.11251416 0.070785515 0.020568153 -0.11374227 -0.098698735 -0.057185438 0.04167936
0.033422038 -0.027764807 -0.0023629088 0.018774904 0.05912914 0.027962191 0.048837982 0.08471976
-0.48467517 0.10302156 0.005796484 0.037221637 -0.007508157 0.013553077 -0.408028 0.00863309
-0.3276113 0.046600133 -0.026128758 -0.08129163 0.01448985 -0.12004281 0.004319179 0.05977501

encoder3.2.weight f4 [64, 64, 3, 3]
00000000: a71b 37be fa2f 91bd 7153 403e 760d a3be
00000010: cfd7 933d e61d 6b3c 4986 be3d b371 3c3e
00000020: d103 9d3c fa05 073b b7e6 fa3c b6ae 603c
00000030: 2739 eabc 30f8 1abd 7d51 2f3d 34ee 66bc
00000040: 5193 803d c74e 77bb f029 86bd 1e77 80bd
00000050: c684 b0ba 9ec5 7e3e c23b d83c 116e dd3d
00000060: d64a 54be 8c14 703e e86d fb3d b0e3 07be
00000070: 5b88 6ebc 4b87 01be 84b8 3c3b 5332 de3e
00000080: dd19 e3bd 653c 1dbc d32d c2bd 94be bbbe
00000090: 26a9 cb3d d94c 2a3e c590 a0bb 07f8 2d3d
000000a0: 6465 ff3c 7adb 90bb 0c5c fc3d 42f6 eabd
000000b0: 7564 d3bc c184 a4bd b554 8abd 8be4 a939
000000c0: 4b66 85bd fb37 65bd 3211 923d 9dc5 0b3e
000000d0: 3a9c a3bd 40ec f23a e146 4cbd 0a0f e0bd
000000e0: 2aef d93d a417 4abe 040d 863d 8bf9 ecbc
000000f0: c3df a8be 9f4b 76bd 438b 59be 6e8b af3c
00000100: dbc5 db3d f87a 05bd 40e6 b7bd a9a8 4abe
00000110: 4510 733b 86e1 cfbe c02c 80bc 5a76 073e
00000120: 12c3 da3c 9076 853d e13d b43d e005 003d
00000130: d884 f33c 6bb5 0dbd 2000 b8bd 4938 d4bd
00000140: 7d9f 83bd 8e11 00be 5e6b 46bd 9822 cbbd
00000150: 5210 b33c 5995 3ebe 6798 40be d9c4 17bc
00000160: f79b 03be ff77 7fbe 9804 79bd 62db d6bc
00000170: ea89 32bd d466 a2bc 9f5e 90bc 2e98 393c
00000180: f401 bfbc dd05 63bb f839 5cbc f99c 03be
00000190: a42c 50be 29aa 513d 85f1 923d c976 96bd
000001a0: 2430 073e 5452 2cbc 3eb0 53bd e83b 53be
000001b0: 8028 9ebe 716b 08bd e0a8 933d 7ceb 173e
000001c0: bcf4 3a3e b795 773c 8468 20be df4b febd
000001d0: 8c07 103d e7bd 91bd aa29 0ebe ed05 363d
000001e0: d69b 24bd e79c cebc bef1 10be db6f 81be
000001f0: 8ce5 a2bc 3832 2bbd a441 8e3c ef55 79bd
00000200: 70c8 ea3d fb9e 51be 1066 8abe e847 e4bd
00000210: 0b60 89bc 096f 4bbd 3b22 243e f15a 463e
00000220: 0064 bb3e 11c9 103e 9794 d13d 69e9 f83e
00000230: 0926 823e 6495 02bf f499 a13d 90e7 643e
00000240: 33c7 f2bc 622b dd3c 0ac1 c33c fa7d 8d3d
00000250: 2fbc 6f3d 03cd a1bd 5da0 b43c bcfa 123c
00000260: 1015 85bd c9b5 34be 4810 b7be 1125 0b3d
00000270: b5e5 0f3d f43b a2bd 1d2c 163d a816 b1bb
00000280: b813 8a3d f010 3d3d 3774 52be d526 9dbb
00000290: 3913 a63d d489 a2be 0b10 f5bd 9bfa fb3c
000002a0: 7459 34be 958a cd3d 88de 6abd 521a a2bd
000002b0: 2aab a8bd 7aaa 65bd e105 bf3d e839 523e
000002c0: e9f5 a2bd 6595 4e3d 321e fc3c ba8a aabe
000002d0: e402 93bc 5c8e e53c 4633 73be 4dfd c33d
000002e0: 0933 7a3e f635 efbc 84ff 5c3d a411 4a3e
000002f0: f131 a0be 5793 88be 3f22 4abe 44e4 bc3c
00000300: 88d7 393c e62b 533e fca3 c63e 2bec 91be
00000310: e1b0 d1be 1e1d 083d b9ee 673e 28b7 003e
00000320: 72ed b0be c733 ab3e bf83 d5be 6e06 5e3d
00000330: 1972 833e 3881 693c 5b6f 2bbe 8af8 b6be
00000340: 598e a8bd 24f0 13be 8d97 e5be 6ad7 c33d
00000350: 4486 c5bd b296 17bf 1d20 79bd 5cf9 12be
00000360: e8dc 6fbc 0d13 dbbc 5265 09bc 124a 8abc
00000370: 65e8 25b9 9bd7 423c a903 19bd c508 adbc
00000380: 4188 40bc 95fd b33d a317 9cbd e2a2 4fbd
00000390: a641 723e c822 9f3d 34e5 1c3e 05d8 713e
000003a0: 8503 633d 85d0 433d fad6 3dbd 509f a63b
000003b0: 6d6f 5d3e e5ae 1c3d 44bc fbbd 4892 ee3c
000003c0: 07a3 473d 407e 0cbe 572a 3f3e c4a4 aa3d
000003d0: 68ba 05bc d6c9 ad3d f318 573c ac9c 233e
000003e0: 4ec8 ae3d f6e1 06be 3587 6fbe 6ec4 ca3c
000003f0: 393b d5bd cba6 55bd f34c 043c e7d0 37be
-0.17881642 -0.07089229 0.1878183 -0.31846207 0.072188966 0.01435039 0.093029566 0.18402748
0.019166859 0.0020602928 0.030627592 0.013713529 -0.028591705 -0.037834346 0.042802323 -0.014094878
0.062780984 -0.0037736164 -0.06550968 -0.0627272 -0.0013467304 0.24880072 0.026395682 0.10812009
-0.20731673 0.23445338 0.12276822 -0.1327045 -0.014558877 -0.12649266 0.0028796503 0.4339777
-0.110889174 -0.009596919 -0.094813965 -0.36668837 0.09944372 0.16630878 -0.0049000704 0.042472865
0.031176277 -0.004420695 0.12322244 -0.11472751 -0.025804738 -0.08033133 -0.06754438 0.0003240447
-0.065136515 -0.05596159 0.07132186 0.13649602 -0.07988782 0.0018533543 -0.049872283 -0.109403685
0.1064132 -0.1973558 0.06545451 -0.028927585 -0.32983217 -0.06013071 -0.2124453 0.02142879
0.10731097 -0.032587975 -0.089794636 -0.19790901 0.0037088555 -0.40601748 -0.015646338 0.13228741
0.026704345 0.065167546 0.08800865 0.031255603 0.02972643 -0.03459684 -0.08984399 -0.10362298
-0.06426904 -0.12506697 -0.048442237 -0.099187076 0.021858368 -0.18611659 -0.18808137 -0.009263241
-0.12852465 -0.24948119 -0.060795397 -0.026227657 -0.043588556 -0.019824423 -0.017623244 0.011327786
-0.023316361 -0.0034640946 -0.013441555 -0.12852849 -0.20329529 0.051187668 0.071749724 -0.07346875
0.13201958 -0.010517675 -0.05168175 -0.20628321 -0.30890274 -0.03330559 0.07209945 0.14835924
0.18257421 0.015111378 -0.1566487 -0.12416815 0.035163447 -0.07116299 -0.13883081 0.044439245
-0.04018768 -0.025221301 -0.14154717 -0.2528065 -0.019884847 -0.04179594 0.017365284 -0.06087297
0.11464012 -0.20470802 -0.27030993 -0.111465275 -0.01676943 -0.04966644 0.16028683 0.19370629
0.3659973 0.14139201 0.102334194 0.48615578 0.25419644 -0.510092 0.07890692 0.22353959
-0.029636001 0.026998226 0.02389576 0.06908794 0.058529075 -0.07900431 0.022049123 0.008970913
-0.06498158 -0.1764747 -0.3575461 0.033970896 0.035131175 -0.079215914 0.036663163 -0.005404312
0.06742042 0.04615873 -0.20552145 -0.004795889 0.08109135 -0.3174578 -0.119659506 0.030759146
-0.17612249 0.10036198 -0.05734113 -0.079151765 -0.08235772 -0.056070782 0.09327293 0.20529902
-0.0795706 0.050435442 0.030776117 -0.33308965 -0.017945714 0.028021984 -0.23750028 0.09569798
0.24433531 -0.029200535 0.053954616 0.19733292 -0.31288102 -0.2667491 -0.19739626 0.023058064
0.011342891 0.20622215 0.38796985 -0.28500494 -0.4095526 0.033230893 0.22649659 0.12569869
-0.34556156 0.3343794 -0.41702077 0.05420535 0.25672987 0.014252 -0.16741697 -0.35736495
-0.08230276 -0.14447075 -0.44842187 0.09562571 -0.0964475 -0.5921432 -0.06082164 -0.14352936
-0.0146400705 -0.026742483 -0.008385973 -0.016881023 -0.000158222 0.011892225 -0.037357006 -0.021122346
-0.011751235 0.08788601 -0.07621696 -0.050692447 0.23657855 0.07770306 0.15321809 0.23617561
0.05542328 0.04780628 -0.046347596 0.0050849095 0.21624537 0.03825273 -0.12291768 0.029122487
0.04873946 -0.13720036 0.18668495 0.08332208 -0.0081621185 0.08485763 0.013128507 0.15977734
0.08534299 -0.13172135 -0.23391421 0.024751868 -0.104116865 -0.05216102 0.008074987 -0.17950784

encoder3.2.bias f4 [64]
00000000: 3127 ddbe 6c15 6ebd 3cbe ddbc 3476 cbbd
00000010: aadb 95bd d978 ccbd 0a8f 9dbd 584d bf3d
00000020: ea16 9cbd 218a 1bbc 6a4e 05bd df06 d4bd
00000030: 40a5 47bd 65d6 74bc b131 5abd 8e58 b93c
00000040: e393 683d 09df bdbc 01ef 9fbd 1f96 8ebc
00000050: 5db2 9ebd 6d2f 88be 60e0 45bd d810 f8bc
00000060: 1abb 18bd 5cac 2dbd 09ef 123d 3c48 44bd
00000070: 4267 bebd 8d18 7cbd b718 4e3e cb4b 14bd
00000080: c0f6 bbbe 1ce8 72bd ad81 0abd 275a c7bd
00000090: c051 f5bd b1e5 983d 669f bcbd 00a9 dfbb
000000a0: 818a e7bc cde5 40bc 232d f3be 97ca 62bd
000000b0: b888 5eb9 c425 f63a 79aa f8bc 0e99 2cbc
000000c0: c0b2 cbbd eb17 bdbd 2541 49bd 0419 b23d
000000d0: 0638 a1bd 49b6 5e3d 6bc3 25bc 3101 96bb
000000e0: 66e1 abbd 54f6 24bd a902 933d 93c4 9bbc
000000f0: 181e 74bd caf3 2fbc 0f47 ecbe 3040 f3bb
-0.43193963 -0.0581259 -0.02706825 -0.09934655 -0.07317288 -0.09983987 -0.07693298 0.09340924
-0.07621558 -0.009493382 -0.032545485 -0.10352873 -0.04874158 -0.014943694 -0.053270046 0.022625234
0.05678166 -0.02317764 -0.07809258 -0.017405568 -0.07748864 -0.26598683 -0.048309684 -0.03028147
-0.03728781 -0.042400703 0.035872493 -0.04792045 -0.092970386 -0.06154685 0.20126615 -0.036205094
-0.36711693 -0.059303388 -0.033815075 -0.09733992 -0.11978483 0.07465685 -0.0921009 -0.0068255663
-0.028264286 -0.011773539 -0.47495374 -0.055368986 -0.00021222502 0.0018779566 -0.030354725 -0.010534538
-0.09946203 -0.092330776 -0.049134392 0.086961776 -0.07872014 0.05437306 -0.010117392 -0.0045777787
-0.08392601 -0.04027398 0.07178242 -0.019014632 -0.059599012 -0.010739276 -0.46147963 -0.007423423
